vae_model_best.pth (torch, 34098 bytes, 42 tensors)

fc1.weight f4 [30, 14]
-0.14881709 -0.15149473 -0.0018162335 0.15714811 0.18637645 -0.06030626 0.22216508 -0.007023258
-1.1421556e-06 -9.656068e-07 -1.0422815e-06 -1.1338874e-06 0.14545819 0.051523753 0.040924374 -0.016745372
0.0899185 -0.107289106 0.27764818 0.059768558 -0.0875108 0.051570423 -1.7887394e-06 9.088893e-07
-2.3629964e-06 -1.8266668e-06 -0.056470472 -0.060614888 0.107294485 -0.11167819 -0.16824263 0.007390706
-0.09449601 -0.051807817 -0.0006923952 -0.09041228 -1.9165782e-06 -1.861714e-06 1.9449613e-05 -1.8182302e-06
-0.15388082 0.09092537 0.25693655 0.0487579 -0.1662346 -0.015438093 -0.07475419 -0.08268065
-0.045950346 0.017685303 -5.7410684e-06 -5.193959e-07 -7.282633e-07 -6.202916e-06 -0.1437271 0.015820762
0.116598554 -0.017636906 0.038012855 0.27148607 0.23435272 -0.13708206 0.0018136491 0.07052511
-1.3800421e-07 -1.8661908e-07 -7.877143e-08 -8.1159783e-07 0.062299855 -0.11278465 -0.13314153 -0.27224422
-0.2131697 0.12012166 -0.12558478 -0.0904125 -0.06162176 -0.022692561 -3.8722254e-07 2.46645e-07
3.370561e-07 1.01842716e-07 0.11579454 -0.18099822 -0.2742061 0.08078698 0.2204073 -0.024931777
0.07685785 -0.034604985 -0.19117224 -0.058764644 -6.218544e-09 1.6002497e-07 -2.5524794e-06 2.9441878e-07
-0.21654828 -0.061554078 0.07841823 -0.16995478 -0.18293257 0.14189778 -0.1212585 0.036926415
-0.023621477 0.08146353 3.3200413e-06 9.2731057e-07 2.0192922e-06 3.0451017e-06 0.07240812 -0.1157739
0.14654315 -0.029342046 0.09279745 0.10686811 0.03172656 -0.06506136 0.037179817 0.15869825
1.6724725e-06 1.6489648e-06 1.6508387e-06 1.4236678e-06 0.07689012 -0.22173245 -0.25718948 -0.05008124
-0.06648333 0.14281899 0.18279582 -0.18811883 0.17230634 -0.053091895 -2.1026149e-07 1.2186882e-06
1.0041547e-06 1.1629585e-06 -0.3172144 -0.04517086 0.08558553 -0.10533147 0.15432756 -0.24902639
-0.16538498 0.03357011 -0.027504837 -0.024755226 -5.177438e-06 -7.724564e-06 -9.064205e-07 -9.039476e-07
0.17052703 -0.105570965 0.17237417 -0.056018423 -0.16830148 -0.0807769 0.21987295 0.06284469
-0.10433558 0.16896032 -2.203272e-06 9.902547e-06 4.968254e-07 2.8568309e-06 -0.10425312 -0.018623067
-0.12818022 -0.032427225 0.09209996 0.15202715 0.096292704 -0.04762132 0.10632604 -0.111459896
2.13399e-06 1.4466759e-06 2.737329e-06 1.5261088e-06 -0.08360477 0.15789105 -0.27188182 0.04809119
-0.16598894 -0.13158469 0.036766443 -0.08089731 0.06124293 -0.1610366 -9.936921e-07 -2.208254e-07
-2.1195929e-06 -9.956567e-07 -0.13722847 -0.06594603 0.14769313 -0.3363721 0.13251741 0.13300095
-0.059868723 -0.004647284 0.21247727 0.022573274 9.6266724e-08 -1.3078371e-06 6.317987e-07 4.674647e-07
0.12277319 -0.030763771 -0.07966914 -0.014649008 0.11020554 0.018915907 -0.16530843 -0.0016784305
0.07160733 -0.0006183441 5.465152e-06 -5.4073175e-06 -5.5592914e-06 1.5152982e-06 -0.08704291 0.13472311
0.14769803 0.14426114 -0.03520582 -0.16158903 -0.27832082 0.025835928 -0.2526894 0.07564537
5.8727625e-07 3.2951348e-07 6.620623e-07 1.9854556e-06 0.0026746902 -0.09405568 0.0662022 0.15590444
0.17677315 0.22735907 -0.19192418 -0.0751991 0.12966041 0.037519913 -3.9256722e-07 8.267335e-07
5.3702365e-07 1.7339668e-06 0.07410478 -0.07958803 0.13848248 0.25199705 0.08663014 -0.11459948
00000000: 8263 18be 6f21 1bbe af0e eeba 6feb 203e
00000010: 78d9 3e3e b203 77bd 3e7f 633e 5c23 e6bb
00000020: 2b4c 99b5 ff99 81b5 85e4 8bb5 1330 98b5
00000030: fef2 143e 920a 533d 51a0 273d 972d 89bc
00000040: 3127 b83d 64ba dbbd e727 8e3e e0cf 743d
00000050: dd38 b3bd 823b 533d 9e14 f0b5 66fa 7335
00000060: f893 1eb6 cb2b f5b5 954d 67bd 5147 78bd
00000070: 36bd db3d 89b7 e4bd cc47 2cbe bc2d f23b
00000080: 2087 c1bd 6f34 54bd db81 35ba 132a b9bd
00000090: 909e 00b6 02e0 f9b5 ba27 a337 ea09 f4b5
000000a0: ef92 1dbe 1537 ba3d 308d 833e 5db6 473d
000000b0: 6739 2abe 0ef0 7cbc ba18 99bd 7954 a9bd
000000c0: 6e36 3cbd c5e0 903c 67a3 c0b6 9d6c 0bb5
000000d0: df7d 43b5 a522 d0b6 322d 13be 8b9a 813c
000000e0: 39cb ee3d 467b 90bc 5eb3 1b3d 3900 8b3e
000000f0: 29fa 6f3e 3d5f 0cbe f7b7 ed3a 786f 903d
00000100: 4f2e 14b4 7661 48b4 0d29 a9b3 94dc 59b5
00000110: 222e 7f3d a3fb e6bd 4156 08be 9863 8bbe
00000120: 2849 5abe 5802 f63d 4c99 00be 302a b9bd
00000130: 1967 7cbd c0e5 b9bc 76e3 cfb4 a16a 8434
00000140: a3f4 b434 a0b4 da33 b025 ed3d 9957 39be
00000150: be64 8cbe a573 a53d 74b2 613e ba3d ccbc
00000160: a667 9d3d f5bd 0dbd a8c2 43be 32b3 70bd
00000170: e4aa d5b1 54d3 2b34 434b 2bb6 9c10 9e34
00000180: d5be 5dbe 2120 7cbd bd99 a03d a008 2ebe
00000190: ad52 3bbe a74d 113e 6056 f8bd 2740 173d
000001a0: d481 c1bc 5ad6 a63d e0cd 5e36 4cec 7835
000001b0: 2d83 0736 735a 4c36 b54a 943d de1a edbd
000001c0: 680f 163e bb5e f0bc 970c be3d abdd da3d
000001d0: b6f3 013d e43e 85bd dd49 183d cb81 223e
000001e0: b879 e035 0052 dd35 6392 dd35 da14 bf35
000001f0: 9178 9d3d d50d 63be 57ae 83be fc21 4dbd
00000200: 6a28 88bd 243f 123e d42e 3b3e 39a2 40be
00000210: 1371 303e e376 59bd 3dc4 61b4 cf91 a335
00000220: 7ec6 8635 f316 9c35 ed69 a2be 1405 39bd
00000230: 7747 af3d 07b8 d7bd 0b08 1e3e c600 7fbe
00000240: ae5a 29be d080 093d d351 e1bc 79cb cabc
00000250: dbb9 adb6 c098 01b7 be50 73b5 cea6 72b5
00000260: a39e 2e3e 9735 d8bd db82 303e 9373 65bd
00000270: 3957 2cbe 5c6e a5bd 6026 613e b8b4 803d
00000280: e4ad d5bd ef03 2d3e eddb 13b6 1e23 2637
00000290: 955d 0535 fbb7 3f36 a982 d5bd 678f 98bc
000002a0: ad41 03be 69d2 04bd e79e bc3d 01ad 1b3e
000002b0: 1c35 c53d 930e 43bd 78c1 d93d 1645 e4bd
000002c0: ab35 0f36 682b c235 f4b2 3736 b3d4 cc35
000002d0: fa38 abbd 31ae 213e 1834 8bbe 45fb 443d
000002e0: 01f9 29be 23be 06be 6998 163d 7dad a5bd
000002f0: ded9 7a3d c7e6 24be 005f 85b5 061c 6db4
00000300: 543e 0eb6 81a2 85b5 9f85 0cbe b60e 87bd
00000310: de3c 173e f738 acbe a5b2 073e 6731 083e
00000320: e838 75bd 3e48 98bb a493 593e 96eb b83c
00000330: 31bb ce33 f188 afb5 e098 2935 dcf7 fa34
00000340: 8370 fb3d 4e04 fcbc 9329 a3bd 6502 70bc
00000350: 71b3 e13d 88f5 9a3c 9d46 29be c8fe dbba
00000360: dda6 923d 5f18 22ba 4c61 b736 8170 b5b6
00000370: f389 bab6 4061 cb35 8e43 b2bd dbf4 093e
00000380: 273e 173e 31b9 133e fa33 10bd 9877 25be
00000390: 1180 8ebe dea5 d33c 8160 81be f6eb 9a3d
000003a0: 51a5 1d35 fde7 b034 93b8 3135 de3d 0536
000003b0: db49 2f3b 44a0 c0bd 0595 873d 6aa5 1f3e
000003c0: 0504 353e d1d0 683e c687 44be fc01 9abd
000003d0: b3c5 043e 7bae 193d 07c2 d2b4 b2ec 5d35
000003e0: fc27 1035 a5ba e835 3fc4 973d 0dff a2bd
000003f0: 5ace 0d3e c205 813e 256b b13d 22b3 eabd

fc1.bias f4 [30]
1.6480502e-06 -1.1771937e-06 -9.373069e-08 -7.4440027e-07 -4.2516785e-06 -5.841845e-07 2.6339048e-06 1.9856886e-06
4.864875e-06 -1.4697762e-06 -6.7849e-07 5.5415935e-06 3.1718268e-06 3.0237788e-06 9.188626e-07 -7.24213e-07
3.5306396e-06 -1.3370781e-06 -2.2932104e-06 1.5039094e-06 2.405859e-07 2.4906026e-06 -2.5948925e-06 1.1915928e-06
-5.8915084e-08 1.2169903e-06 -8.813939e-06 -3.333125e-07 -3.0043543e-06 -2.968055e-06
00000000: 9332 dd35 1100 9eb5 fe48 c9b3 ccd2 47b5
00000010: a4a9 8eb6 dad0 1cb5 24c2 3036 df41 0536
00000020: f53c a336 2045 c5b5 7a21 36b5 edf1 b936
00000030: 92db 5436 20ec 4a36 c2a7 7635 8a67 42b5
00000040: edef 6c36 a775 b3b5 0ee5 19b6 efd9 c935
00000050: e029 8134 3a24 2736 ea23 2eb6 d1ee 9f35
00000060: d209 7db3 7857 a335 94df 13b7 1ff2 b2b4
00000070: 6a9e 49b6 cc2e 47b6

bn1.weight f4 [30]
0.81659615 0.7866912 0.89849836 0.9455588 0.83774227 0.9087755 0.87114257 0.88559043
0.9227186 0.91292846 0.82103133 0.902552 0.82441485 0.84144497 0.837977 0.9912208
0.8354114 0.83353376 0.97092104 0.93145156 0.81811225 0.9408341 0.9029177 0.8143993
0.9287957 0.7597018 0.8621618 0.88034195 0.9224429 0.9036243
00000000: 720c 513f 9864 493f fd03 663f 2410 723f
00000010: 4776 563f 83a5 683f 3303 5f3f 0eb6 623f
00000020: 4937 6c3f aeb5 693f 1c2f 523f a60d 673f
00000030: da0c 533f f068 573f a985 563f a5c0 7d3f
00000040: 86dd 553f 7862 553f 488e 783f 9c73 6e3f
00000050: ce6f 513f 81da 703f 9d25 673f 797c 503f
00000060: 8ec5 6d3f d17b 423f a3b6 5c3f 175e 613f
00000070: 3825 6c3f ec53 673f

bn1.bias f4 [30]
-0.057526927 0.042056486 -0.0067599555 -0.0760483 -0.0025946626 0.054706305 -0.07913617 -0.11497986
-0.033673868 -0.08357351 -0.089011006 0.0024520722 0.059358627 -0.0076953364 -0.014220767 -0.061613575
-0.031086307 -0.05060717 -0.14258523 -0.023662142 0.03415156 -0.11582051 0.11014702 0.009162662
-0.13508436 0.046276893 -0.03004813 -0.07349838 -0.056261204 -0.12575781
00000000: 5ba1 6bbd 6c43 2c3d 9e82 ddbb 36bf 9bbd
00000010: 370b 2abb b813 603d 2512 a2bd 907a ebbd
00000020: 9ced 09bd 9728 abbd 674b b6bd f2b2 203b
00000030: 0822 733d 2929 fcbb 38fe 68bc 845e 7cbd
00000040: b6a8 febc 7749 4fbd dd01 12be 1cd7 c1bc
00000050: 82e2 0b3d 4e33 edbd c394 e13d fd1e 163c
00000060: 8e53 0abe d78c 3d3d 7f27 f6bc 5286 96bd
00000070: 2672 66bd a8c6 00be

bn1.running_mean f4 [30]
0.041398313 0.15863743 -0.14347856 -0.048195932 0.0743535 -0.08649402 0.005556264 -0.0056824815
0.13425812 -0.016215004 -0.013002088 0.21818075 -0.08928393 -0.11389584 -0.014381687 -0.035574775
-0.001578967 -0.066029646 0.14935108 -0.1696547 -0.013700992 0.020800754 -0.14915049 -0.15298973
0.14713342 0.09141624 -0.12100138 0.04350347 -0.14301917 -0.04628357
00000000: 4791 293d da71 223e 0bec 12be 1969 45bd
00000010: a646 983d c723 b1bd 5211 b63b 1c34 babb
00000020: f67a 093e 54d5 84bc b606 55bc c66a 5f3e
00000030: 7eda b6bd 3942 e9bd 2ba1 6bbc dbb6 11bd
00000040: 57f5 ceba 8d3a 87bd 7def 183e f6b9 2dbe
00000050: 207a 60bc 5866 aa3c e8ba 18be 57a9 1cbe
00000060: 25aa 163e 7038 bb3d 92cf f7bd b230 323d
00000070: 9e73 12be d793 3dbd

bn1.running_var f4 [30]
0.10540393 0.0795399 0.083385736 0.089651346 0.100228965 0.1608347 0.12573184 0.13277337
0.02862232 0.09679799 0.05804197 0.08181398 0.06902988 0.069356896 0.10933766 0.028310016
0.16596057 0.12635428 0.07873961 0.12554863 0.063793495 0.064941354 0.15345652 0.089000456
0.23112716 0.08762957 0.0481233 0.09972245 0.043190498 0.18895708
00000000: 04de d73d d1e5 a23d 24c6 aa3d 209b b73d
00000010: d844 cd3d dab1 243e d9bf 003e bef5 073e
00000020: 5b79 ea3c 063e c63d 6bbd 6d3d 178e a73d
00000030: 8a5f 8d3d fd0a 8e3d 6cec df3d 68ea e73c
00000040: 91f1 293e 0463 013e 3c42 a13d d28f 003e
00000050: 2aa6 823d f9ff 843d b523 1d3e df45 b63d
00000060: 99ac 6c3e 2277 b33d f01c 453d 493b cc3d
00000070: 85e8 303d f77d 413e

fc2.weight f4 [30, 30]
-0.088240124 -0.08807181 -0.022018904 0.17821085 0.038992837 0.11944073 0.101868264 -0.026067171
0.02148026 -0.13024068 -0.022845535 -0.20106696 0.013188653 -0.07786761 -0.07433147 0.08821974
0.057097662 0.04508389 -0.22331181 -0.00906829 0.112129524 -0.034937873 0.03204131 0.13717464
-0.10814128 -0.21291262 -0.17234164 0.17554727 0.10498115 -0.14184788 -0.13593476 0.025713628
0.09327292 -0.048003353 0.1075664 -0.21173541 -0.10651727 0.042156015 0.17230633 -0.09596339
0.036326446 -0.048343565 -0.03601264 -0.12927957 0.16359174 0.019695105 0.037280966 0.019511238
0.023883265 0.15149654 0.021499643 -0.077059925 -0.03500811 0.069575325 0.04106709 0.0013227978
-0.22834603 -0.05327168 0.15665181 0.12012416 -0.05592811 0.0030824014 0.033146705 -0.038774192
0.057960343 0.019098815 -0.028266346 0.05347959 0.19606985 0.19960134 0.109698296 -0.01737334
-0.1375783 0.09822532 0.17722118 0.0133461775 -0.020525837 0.081636325 -0.11316952 0.002560455
0.1623852 0.09608042 -0.10385382 0.10793606 -0.056702483 -0.04667824 -0.07727363 -0.1098631
0.1287728 -0.02377794 -0.049416896 -0.02645255 -0.06207735 0.16656736 0.15319219 -0.008769611
-0.04582716 0.26699397 0.3220364 -0.055080235 -0.0024185465 0.09046169 -0.02952004 -0.08753422
0.05716251 0.17309563 0.025597291 0.024508543 -0.102130055 0.115509324 0.06589938 0.08210738
0.076613314 0.086974345 -0.08374197 0.03440653 -0.06536323 -0.072975546 0.0072536147 0.17487818
0.100899 -0.15459436 0.110252224 -0.008485015 0.09318661 0.019339295 0.13876687 0.17626528
-0.13474222 -0.08135383 -0.015221048 0.23100899 -0.009239688 0.10697842 0.0188408 -0.044380344
-0.12619343 -0.12503193 0.0554515 -0.014394089 0.019192245 0.05358535 0.013906461 0.09074138
0.16046229 -0.08474762 0.2467423 -0.012167238 0.111386165 -0.0061946395 0.06536744 -0.07927371
0.093481846 0.07705606 0.05046932 0.16261318 -0.10675557 0.1366099 0.014715722 0.13714866
0.0035993913 -0.11984708 -0.023546819 -0.11001284 0.1055014 -0.10777098 0.020783745 -0.08234355
-0.2612282 0.0733091 -0.068323925 0.012741906 0.09044918 -0.16137657 0.14954711 0.0360293
-0.11873013 0.029621726 0.11128632 -0.21104372 0.00900919 0.10356536 0.042885933 -0.05565052
0.0058670905 0.25713217 0.15767907 0.07480921 0.028335776 0.061084136 0.20160836 -0.16634765
-0.13056451 0.11656034 0.12927754 0.12983094 0.08191181 0.008087724 -0.08622605 0.049906816
-0.015536427 0.032804366 0.15510708 0.059861064 0.08436966 -0.046147846 -0.11612482 -0.0032047199
0.11775803 -0.12115014 -0.05066161 -0.01437574 -0.1658445 0.087106965 0.059655994 -0.26533523
0.15504488 -0.12409962 -0.15330249 -0.017755488 0.17463908 0.004489082 0.0063649965 -0.027037786
-0.092820376 0.09907888 0.075266145 0.1361984 0.114612706 0.0722905 0.12756054 0.0045911474
-0.008721979 0.06549808 -0.024849638 -0.046747416 0.03165103 -0.08595933 0.043272603 0.29724005
0.045622583 0.038049586 -0.08598549 0.16924793 0.16987224 0.036446262 -0.04120384 0.16973494
0.008544551 -0.03302198 -0.22299576 0.09015634 0.03214146 -0.08054332 0.06325241 0.009436007
00000000: 3db7 b4bd fe5e b4bd fd60 b4bc e87c 363e
00000010: f4b6 1f3d 579d f43d 4fa0 d03d d28a d5bc
00000020: 5ff7 af3c d05d 05be 8f26 bbbc 7fe4 4dbe
00000030: 3815 583c 0e79 9fbd 193b 98bd 8dac b43d
00000040: 3ddf 693d e3a9 383d daab 64be 2a93 14bc
00000050: 2aa4 e53d 041b 0fbd c03d 033d 8277 0c3e
00000060: 2d79 ddbd c405 5abe 547a 30be aac2 333e
00000070: 5b00 d73d 9240 11be 7b32 0bbe 63a5 d23c
00000080: df05 bf3d 2a9f 44bd c64b dc3d 2bd1 58be
00000090: ba25 dabd c9ab 2c3d 1271 303e 7488 c4bd
000000a0: 0acb 143d e703 46bd fd81 13bd dd61 04be
000000b0: 9884 273e a157 a13c edb3 183d 08d6 9f3c
000000c0: d6a6 c33c e921 1b3e 0520 b03c 98d1 9dbd
000000d0: aa64 0fbd 827d 8e3d f735 283d bb61 ad3a
000000e0: 8bd3 69be 6833 5abd 5569 203e a803 f63d
000000f0: e014 65bd 1d02 4a3b d7c4 073d b0d1 1ebd
00000100: d367 6d3d 1e75 9c3c d38e e7bc 6a0d 5b3d
00000110: 89c6 483e 4b64 4c3e 80a9 e03d 8952 8ebc
00000120: 53e1 0cbe 5b2a c93d 7879 353e eda9 5a3c
00000130: cd25 a8bc f230 a73d 6cc5 e7bd 4ecd 273b
00000140: 4e48 263e d0c5 c43d 50b1 d4bd 950d dd3d
00000150: dd40 68bd af31 3fbd a341 9ebd e8ff e0bd
00000160: 04dd 033e f4c9 c2bc 5f69 4abd 05b3 d8bc
00000170: d244 7ebd a290 2a3e 6ade 1c3e 6aae 0fbc
00000180: 43b5 3bbd 6fb3 883e f4e1 a43e d09b 61bd
00000190: 7a80 1ebb fb43 b93d 03d4 f1bc 2445 b3bd
000001a0: 3c23 6a3d fb3f 313e 69b1 d13c 24c6 c83c
000001b0: 9029 d1bd 2790 ec3d 41f6 863d ea27 a83d
000001c0: 71e7 9c3d 9b1f b23d e980 abbd dded 0c3d
000001d0: 28dd 85bd 3474 95bd bbaf ed3b 4413 333e
000001e0: 23a4 ce3d fc4d 1ebe ebcb e13d bb04 0bbc
000001f0: 9fd8 be3d 716d 9e3c e718 0e3e e37e 343e
00000200: ddf9 09be d69c a6bd b461 79bc 9f8d 6c3e
00000210: 0f62 17bc 8017 db3d 0558 9a3c 2ac8 35bd
00000220: da38 01be 5f08 00be 1d21 633d 2fd5 6bbc
00000230: 0e39 9d3c 507c 5b3d edd7 633c 9ed6 b93d
00000240: 3a50 243e 2990 adbd 03aa 7c3e 1859 47bc
00000250: 6e1e e43d 67fc cabb 5ddf 853d 415a a2bd
00000260: 6973 bf3d 91cf 9d3d ebb8 4e3d 1284 263e
00000270: aaa2 dabd 77e3 0b3e 361a 713c b370 0c3e
00000280: c4e3 6b3b 6372 f5bd 42e5 c0bc 694e e1bd
00000290: 1e11 d83d 08b7 dcbd ac42 aa3c bca3 a8bd
000002a0: b4bf 85be 1523 963d 6aed 8bbd 6dc3 503c
000002b0: 6b3d b93d e63f 25be e122 193e 7693 133d
000002c0: c828 f3bd 43a9 f23c 15ea e33d d81b 58be
000002d0: 489b 133c 131a d43d 29a9 2f3d cdf1 63bd
000002e0: b940 c03b d4a6 833e 9f76 213e 9235 993d
000002f0: 6e20 e83c 5c33 7a3d 6c72 4e3e 0a57 2abe
00000300: b4b2 05be 30b7 ee3d 5561 043e 67f2 043e
00000310: 61c1 a73d 6082 043c 4997 b0bd 176b 4c3d
00000320: 7f8c 7ebc df5d 063d 64d4 1e3e e030 753d
00000330: 00ca ac3d 8605 3dbd dad2 edbd 4706 52bb
00000340: 1f2b f13d 911d f8bd 8c82 4fbd 3988 6bbc
00000350: 24d3 29be 2365 b23d d859 743d 05da 87be
00000360: 16c4 1e3e f127 febd 54fb 1cbe f573 91bc
00000370: 96d4 323e 2619 933b 7691 d03b 597e ddbc
00000380: 9c18 bebd dee9 ca3d 2325 9a3d 9877 0b3e
00000390: 11ba ea3d 0b0d 943d 3b9f 023e 5671 963b
000003a0: a2e6 0ebc db23 863d 7891 cbbc 387a 3fbd
000003b0: 83a4 013d 720b b0bd 9d3e 313d d92f 983e
000003c0: bfde 3a3d e2d9 1b3d 2919 b0bd 544f 2d3e
000003d0: fdf2 2d3e ad48 153d 5cc5 28bd ffce 2d3e
000003e0: 72fe 0b3c 0e42 07bd 0059 64be e3a3 b83d
000003f0: c3a6 033d e5f3 a4bd 7b8a 813d 7b99 1a3c

fc2.bias f4 [30]
1.2288435e-06 1.8860429e-06 -1.4069078e-06 -8.8097823e-07 4.8357657e-07 -1.220729e-06 1.2072685e-07 5.2180565e-07
1.3272548e-07 3.7629575e-06 4.9724315e-07 -1.7280635e-07 -4.4416092e-06 -1.5527709e-06 4.5765255e-08 9.785729e-07
-1.5680697e-06 -9.928165e-07 -2.4231058e-06 1.7142422e-07 -6.6235407e-06 -7.3541463e-07 1.8230003e-06 5.0839017e-06
-2.5129005e-08 -3.1665681e-06 -2.2381773e-06 1.3568998e-06 -1.703805e-06 -1.340869e-05
00000000: beee a435 f123 fd35 fcd4 bcb5 5d7c 6cb5
00000010: 21cf 0135 eed7 a3b5 25a1 0134 3612 0c35
00000020: 4d83 0e34 1e87 7c36 4a7a 0535 a68c 39b4
00000030: 2209 95b6 cd68 d0b5 6e8f 4433 8257 8335
00000040: 7776 d2b5 ea40 85b5 a49c 22b6 bb10 3834
00000050: c83f deb6 4f69 45b5 d0ad f435 6296 aa36
00000060: 44db d7b2 3a81 54b6 9833 16b6 b91e b635
00000070: 4bae e4b5 e3f5 60b7

bn2.weight f4 [30]
0.80013704 0.9017305 0.81088436 0.8714724 0.9690123 0.8986023 0.8233464 0.8008507
0.9684816 0.93871015 0.8016293 0.9754064 0.8986933 0.9620426 0.8790651 0.82850933
0.9330375 0.9290425 0.91819227 0.86702925 0.87118816 0.8919831 0.852595 0.8904776
0.92765784 0.9341551 0.85029244 0.9106305 0.870025 0.8856827
00000000: c8d5 4c3f cfd7 663f 1e96 4f3f d118 5f3f
00000010: 3111 783f cd0a 663f d4c6 523f 8d04 4d3f
00000020: 69ee 773f 4f4f 703f 9437 4d3f 3cb4 793f
00000030: c410 663f 6d48 763f 690a 613f 3019 543f
00000040: 8cdb 6e3f bbd5 6d3f a60e 6b3f a1f5 5d3f
00000050: 3006 5f3f 0159 643f aa43 5a3f 57f6 633f
00000060: fc7a 6d3f ca24 6f3f c4ac 593f 151f 693f
00000070: f5b9 5e3f 1abc 623f

bn2.bias f4 [30]
0.14508496 -0.06824795 -0.0471551 0.0072135176 -0.058249597 -0.11680988 0.018093113 -0.12060879
0.08332853 0.0031642604 -0.00035510553 0.058020893 0.02948332 -0.019250575 -0.01990001 0.001929022
-0.13239354 0.10433823 0.048384923 -0.06546939 -0.04324605 -0.0055788485 -0.13171604 0.012889678
0.053709798 0.011182617 -0.067363754 -0.0023134712 -0.023430487 -0.07353723
00000000: 2791 143e 95c5 8bbd b525 41bd 5f5f ec3b
00000010: 2197 6ebd 053a efbd 0238 943c be01 f7bd
00000020: 26a8 aa3d 7b5f 4f3b 752d bab9 51a7 6d3d
00000030: 0187 f13c 62b3 9dbc 5905 a3bc 3dd7 fc3a
00000040: 2c92 07be 48af d53d 452f 463d d114 86bd
00000050: c522 31bd c6ce b6bb 92e0 06be 3a2f 533c
00000060: cefe 5b3d 4c37 373c 02f6 89bd 9b9d 17bb
00000070: 4bf1 bfbc b09a 96bd

bn2.running_mean f4 [30]
-0.03827391 0.00788297 0.09384608 0.17706339 0.12812334 0.0024534082 0.17543331 0.042103298
0.10601806 -0.082156464 -0.057450693 0.07795968 0.009668269 0.12873924 0.067333885 0.02657381
0.1679061 -0.015886042 0.13271119 -0.06778978 -0.04033804 0.18628192 -0.062417176 0.06026941
0.05132816 0.03207904 0.09152827 0.006273729 -0.075605966 0.18499166
00000000: 1ac5 1cbd 9327 013c 6032 c03d 1b50 353e
00000010: c432 033e 5cc9 203b caa4 333e 8274 2c3d
00000020: ff1f d93d a641 a8bd 6b51 6bbd 53a9 9f3d
00000030: a967 1e3c 38d4 033e 59e6 893d 52b1 d93c
00000040: 94ef 2b3e 7223 82bc 71e5 073e 5ed5 8abd
00000050: 8039 25bd b0c0 3e3e 27a9 7fbd 0fdd 763d
00000060: 7a3d 523d 5065 033d 2c73 bb3d da93 cd3b
00000070: 4dd7 9abd 746e 3d3e

bn2.running_var f4 [30]
0.20617571 0.16024718 0.07436447 0.20864992 0.1167743 0.30696917 0.07580233 0.24906196
0.19866887 0.21928124 0.16183662 0.13759246 0.26509407 0.27257437 0.23258479 0.0863768
0.19720952 0.25590146 0.1215701 0.21611212 0.2529476 0.24989162 0.1387207 0.17157994
0.19587208 0.23817539 0.35654083 0.2315703 0.20383063 0.15637508
00000000: ba1f 533e d617 243e 664c 983d 53a8 553e
00000010: 5d27 ef3d 102b 9d3e 413e 9b3d 190a 7f3e
00000020: da6f 4b3e 438b 603e 80b8 253e 0ae5 0c3e
00000030: 69ba 873e de8e 8b3e b52a 6e3e 52e6 b03d
00000040: 4bf1 493e 8405 833e bff9 f83d 7f4c 5d3e
00000050: 5982 813e 97e3 7f3e cd0c 0e3e a7b2 2f3e
00000060: b192 483e 40e4 733e 858c b63e c420 6d3e
00000070: fab8 503e ca20 203e

fc3.weight f4 [15, 30]
0.04564604 0.04746702 0.072097 7.096757e-06 -0.08666864 0.02162321 0.061623555 0.010978491
-0.20588616 -0.015472688 0.19068313 0.29390067 -0.024019005 -0.12662943 -0.08067707 -0.13762683
0.104413316 0.014515501 0.2425147 0.03265739 -0.009461793 -0.11115616 -0.047313202 -0.2874737
-0.29557532 -0.08312017 0.10380408 0.070270844 -0.026249928 -0.04951215 -0.055315886 -0.16051307
0.048757568 -0.004907806 -0.09335751 0.028722547 0.10764283 -0.01777011 -0.07107512 0.04865548
0.09847294 0.14507248 -0.038871713 0.22462463 0.08860427 0.062134966 -0.092714906 0.055113893
0.28022695 -0.0937375 -0.12433754 -0.08512569 -0.18276852 0.033269152 -0.14692259 0.12560827
-0.20349778 0.19176543 0.10018271 0.02820994 0.0009667797 0.0209077 0.019487908 0.0733459
0.12178647 0.20002447 0.12501587 -0.2791072 0.14123477 -0.3985266 0.08228859 -0.015975451
-0.033008724 -0.02892336 0.073738426 0.052539125 0.024914116 -0.03140686 -0.012543774 -0.09493129
-0.28595102 0.031828545 -0.074954025 -0.08348018 -0.08090746 0.034321684 0.16706102 -0.043741874
-0.025988685 0.15823916 0.024258386 0.09422775 0.0081311185 0.10526969 -0.062042296 -0.09197078
-0.078768626 -0.04040002 -0.10333201 0.08214299 -0.11905928 0.003197952 -0.16330425 0.06622781
-0.09413942 -0.10662554 -0.27467725 0.050517987 0.117957436 0.039804872 0.11309518 0.058903664
-0.04183097 0.07115514 -0.08968454 0.059779983 -0.22432716 0.012705946 0.25532967 -0.028257389
0.13173224 0.038449503 0.18059322 -0.023387805 0.07802134 0.025699949 -0.13616613 -0.023823515
0.2802735 -0.02160277 0.04249922 0.04930541 0.09859211 -0.18654242 0.1216731 0.2238733
0.13511543 -0.18118717 -0.2173431 0.08048193 -0.048304576 -0.077384315 0.07701244 0.04044902
-0.012459594 0.092634015 0.12259279 -0.25597793 0.024782995 -0.025542498 -0.019589968 -0.022346549
0.015228567 0.11426332 -0.09406358 0.052726034 0.0046056244 -0.062877685 -0.13968194 0.015998986
-0.13392511 -0.0907883 -0.122905426 -0.22581664 -0.06836614 -0.009127758 -0.09320785 0.085379265
-0.31779516 -0.031498045 0.12036756 0.007353551 0.17673427 -0.009311884 -0.096118085 -0.044527035
0.05284246 -0.16279362 -0.0064894953 -0.22451262 -0.11794259 -0.2802271 -0.18220964 -0.26313072
0.19182602 -0.035292003 0.034988496 -0.058362726 0.02784366 0.065125614 0.075965375 0.06271843
-0.00089777505 0.009495941 -0.32190478 0.20613848 0.105153285 0.19400449 -0.11421789 -0.09059123
-0.051918555 -0.06654238 -0.007888358 0.08869596 -0.04758925 0.0040542674 -0.026047936 0.0872493
-0.09880059 0.08497726 -0.013105798 -0.124100566 -0.011669099 -0.09510934 0.015353345 -0.083568975
0.18060556 0.13391823 0.04752988 0.0052765445 0.057160556 -0.0133322505 0.055079136 -0.22238654
-0.07654854 0.054101855 0.07031608 -0.050757963 -0.033064194 -0.050650127 0.03643729 0.19294901
0.05267308 -0.10150384 -0.16484813 -0.17375684 0.12641944 -0.14000972 -0.20801668 -0.06795655
-0.048459772 -0.059796877 0.103530705 0.09601588 0.082107976 0.11066205 0.045953088 -0.2931773
-0.02815633 0.03166414 -0.11260601 -0.18546109 -0.21923158 -0.0045580645 -0.17653674 -0.090782024
00000000: 58f7 3a3d c76c 423d 98a7 933d ae20 ee36
00000010: 547f b1bd 2823 b13c fb68 7c3d 21df 333c
00000020: d2d3 52be 2881 7dbc 7042 433e 267a 963e
00000030: 81c3 c4bc 25ab 01be 053a a5bd 0cee 0cbe
00000040: a6d6 d53d 6dd2 6d3c c655 783e c1c3 053d
00000050: a305 1bbc d7a5 e3bd 7dcb 41bd c12f 93be
00000060: a655 97be e83a aabd 3c97 d43d 29ea 8f3d
00000070: 170a d7bc 41cd 4abd e992 62bd 8a5d 24be
00000080: 04b6 473d a9d1 a0bb 3932 bfbd 8c4b eb3c
00000090: d873 dc3d 9f92 91bc d58f 91bd f84a 473d
000000a0: 2eac c93d e18d 143e f237 1fbd 0004 663e
000000b0: 2876 b53d 3c81 7e3d 50e1 bdbd 1bbf 613d
000000c0: e879 8f3e 72f9 bfbd aea4 febd 6156 aebd
000000d0: ac27 3bbe 3c45 083d e072 16be 749f 003e
000000e0: b961 50be 285e 443e 982c cd3d 8818 e73c
000000f0: 7d6f 7d3a a046 ab3c 1ba5 9f3c 6036 963d
00000100: 2f6b f93d 37d3 4c3e 2904 003e 24e7 8ebe
00000110: d99f 103e ae0b ccbe ec86 a83d f3de 82bc
00000120: 2834 07bd aff0 ecbc 2c04 973d 4433 573d
00000130: b018 cc3c 7ba4 00bd 6784 4dbc 566b c2bd
00000140: 2c68 92be a65e 023d 7f81 99bd a8f7 aabd
00000150: cfb2 a5bd e594 0c3d 0b12 2b3e ae2a 33bd
00000160: 39e6 d4bc 7209 223e 86b9 c63c 7bfa c03d
00000170: 6238 053c a397 d73d 1020 7ebd 2d5b bcbd
00000180: 7251 a1bd 7e7a 25bd bc9f d3bd 953a a83d
00000190: 5ad5 f3bd bb94 513b 3b39 27be 72a2 873d
000001a0: 2bcc c0bd 7e5e dabd 7fa2 8cbe f3eb 4e3d
000001b0: ab93 f13d 6f0a 233d 729e e73d f844 713d
000001c0: f456 2bbd c9b9 913d 87ac b7bd dbdb 743d
000001d0: 05b6 65be 9a2c 503c 92ba 823e 0a7c e7bc
000001e0: d1e4 063e 3a7d 1d3d 6eed 383e c897 bfbc
000001f0: a7c9 9f3d b388 d23c 226f 0bbe 8829 c3bc
00000200: 0280 8f3e 4bf8 b0bc aa13 2e3d 78f4 493d
00000210: a9ea c93d fa04 3fbe bf2f f93d 0b3f 653e
00000220: b35b 0a3e 2189 39be 318f 5ebe b6d3 a43d
00000230: 05db 45bd ab7b 9ebd b3b8 9d3d dfad 253d
00000240: 5323 4cbc e7b6 bd3d ee11 fb3d 8a0f 83be
00000250: b505 cb3c 803e d1bc 247b a0bc 1c10 b7bc
00000260: 3d81 793c e302 ea3d 68a4 c0bd 41f7 573d
00000270: c7ea 963b 04c6 80bd c808 0fbe 4e10 833c
00000280: aa23 09be 37ef b9bd d7b5 fbbd 7a3c 67be
00000290: 8c03 8cbd 988c 15bc c2e3 bebd 53db ae3d
000002a0: 0cb6 a2be 1804 01bd 4483 f63d 0ff6 f03b
000002b0: d4f9 343e df90 18bc 8fd9 c4bd fb61 36bd
000002c0: 5671 583d 5fb3 26be d5a5 d4bb a3e6 65be
000002d0: e28b f1bd ed79 8fbe 2a95 3abe 12b9 86be
000002e0: 0a6e 443e 598e 10bd 1950 0f3d c10d 6fbd
000002f0: 6318 e43c 9460 853d bc93 9b3d 8572 803d
00000300: aa58 6bba dd94 1b3c b4d0 a4be f715 533e
00000310: 9b5a d73d 1da9 463e 12eb e9bd e587 b9bd
00000320: 8da8 54bd 5f47 88bd 2c3e 01bc 3aa6 b53d
00000330: f2ec 42bd a9d9 843b 7b62 d5bc c3af b23d
00000340: f757 cabd 8f08 ae3d b3b9 56bc 7028 febd
00000350: c02f 3fbc b0c8 c2bd 998c 7b3c 3626 abbd
00000360: aaf0 383e dc21 093e b1ae 423d dde6 ac3b
00000370: 3021 6a3d 836f 5abc a99a 613d 4cb9 63be
00000380: 7bc5 9cbd e899 5d3d e001 903d 95e7 4fbd
00000390: 526e 07bd 8276 4fbd 453f 153d 6d94 453e
000003a0: babf 573d 3fe1 cfbd f3cd 28be 50ed 31be
000003b0: 1974 013e b55e 0fbe 5302 55be ce2c 8bbd
000003c0: c17d 46bd 92ed 74bd e807 d43d f9a3 c43d
000003d0: 3a28 a83d c9a2 e23d 4e39 3c3d 561b 96be
000003e0: 1ba8 e6bc 42b2 013d fb9d e6bd 83e9 3dbe
000003f0: 3e7e 60be d15b 95bb 0cc6 34be edeb b9bd

fc3.bias f4 [15]
-2.0858113e-07 -7.32464e-07 -2.2481586e-06 8.6023334e-07 -5.5436495e-08 4.0114774e-06 -4.14458e-06 -1.1120421e-06
3.2847078e-07 4.415122e-06 2.2647168e-06 -2.5778156e-06 4.7872794e-07 6.0354523e-07 8.821377e-06
00000000: 58f6 5fb4 8b9e 44b5 12df 16b6 c9ea 6635
00000010: 1219 6eb3 549a 8636 ac11 8bb6 7a41 95b5
00000020: ae58 b034 9c25 9436 8afb 1736 89fe 2cb6
00000030: ef81 0035 5003 2235 87ff 1337

bn3.weight f4 [15]
1.1276333 1.1214656 1.1992117 1.1149336 1.0001504 1.0634376 1.0706953 0.97222626
1.019116 1.1416306 1.0492822 1.0594404 1.0125537 1.0113328 1.0710278
00000000: 4a56 903f 2f8c 8f3f c57f 993f 25b6 8e3f
00000010: ee04 803f b91e 883f 8b0c 893f d2e3 783f
00000020: 6572 823f f420 923f e14e 863f be9b 873f
00000030: 5c9b 813f 5a73 813f 7017 893f

bn3.bias f4 [15]
0.5687605 0.5094072 0.5037895 0.46256927 0.40086228 0.6386307 0.54261357 0.16893046
0.42091835 0.54649276 0.45031205 0.601444 0.22531337 0.19870286 0.40514815
00000000: 4a9a 113f 8368 023f 59f8 003f e1d5 ec3e
00000010: d23d cd3e 4d7d 233f b9e8 0a3f 1bfc 2c3e
00000020: 9c82 d73e f3e6 0b3f 4d8f e63e 3cf8 193f
00000030: 8cb8 663e c378 4b3e 946f cf3e

bn3.running_mean f4 [15]
-0.06164618 0.09217715 -0.019850362 -0.03023274 0.081063904 -0.2525159 -0.05598608 -0.13002042
-0.119356565 -0.09012726 -0.08139778 -0.21410438 0.076503895 -0.03957664 -0.14063217
00000000: b480 7cbd 60c7 bc3d 3a9d a2bc a7aa f7bc
00000010: d504 a63d c449 81be a951 65bd 1324 05be
00000020: 3771 f4bd a494 b8bd e1b3 a6bd 2e3e 5bbe
00000030: 13ae 9c3d 1d1b 22bd e101 10be

bn3.running_var f4 [15]
0.41432884 0.43498683 0.5080105 0.35114878 0.41235253 0.13565466 0.53921527 0.26539046
0.33497503 0.46221453 0.38590488 0.25726146 0.31832317 0.17130405 0.2905898
00000000: e922 d43e 98b6 de3e fa0c 023f c6c9 b33e
00000010: df1f d33e 0ee9 0a3e 030a 0a3f 42e1 873e
00000020: d981 ab3e 62a7 ec3e 5395 c53e c6b7 833e
00000030: 41fb a23e 546a 2f3e 30c8 943e

fc_mu.weight f4 [20, 15]
-0.26664242 -0.14330915 -0.21217085 -0.022142733 -0.14843932 0.12100419 0.21768387 0.29807663
-0.0051200776 -0.046364192 0.20525916 0.21701138 -0.01870685 -0.15369335 -0.05083008 0.0053902385
0.11687486 -0.25448462 -0.11534342 -0.16228208 -0.02202668 -0.004782409 0.2913146 0.097166054
0.3689678 0.13679974 -0.22883677 0.07957668 0.20784616 -0.045888167 -0.12168884 0.27788687
0.36924222 0.11253311 -0.036419194 -0.084650934 -0.07053213 -0.09898595 -0.10877484 0.110283375
-0.0058663925 0.18798794 0.25100404 -0.16651101 0.19402356 -0.027502647 0.1383912 -0.11231361
-0.20652664 -0.15525469 -0.097561255 -0.1041772 0.21574807 -0.0451311 0.024186468 -0.10429793
-0.19817072 -0.15496159 0.061593823 0.2370877 -0.063708596 0.10976843 -0.107616596 -0.11234186
0.025426837 -0.03613755 0.024884705 -0.011785878 0.054079287 0.13182029 -0.12193812 -0.043118984
-0.12679705 0.11356977 0.12017823 -0.18820551 0.14094716 -0.0643365 -0.046132434 0.05861029
0.09401321 -0.02646824 -0.0624916 -0.1075438 0.019687792 -0.23764113 -0.09168005 -0.17247964
0.15732665 -0.033439796 -0.23983772 0.064272955 -0.27299836 -0.21267916 -0.13587488 -0.26205453
-0.033670098 0.13405655 -0.045882355 -0.016307397 -0.22101584 0.12683104 0.17918254 -0.33488324
0.31250608 -0.52074516 0.35992965 -0.4956737 0.44113538 -0.3224905 -0.054137517 0.3339104
-0.14485839 -0.03293597 0.08079552 0.290444 0.10471628 0.14000785 -0.27075252 0.18441574
0.20443855 -0.2673867 -0.07491788 0.06983956 0.16158132 -0.15107343 0.10709541 -0.16808885
0.055229224 -0.20756166 0.02452133 -0.03550774 -0.05097346 -0.20211144 -0.039727557 0.0053063612
-0.28475007 0.047399666 0.048105 -0.14516981 -0.015257748 -0.047046002 -0.16329727 0.1019964
-0.05058451 -0.072580375 0.025056675 0.16514106 0.025579106 -0.08178328 -0.34273916 -0.3201559
0.25740868 0.008071665 0.23756872 0.14565194 -0.345887 -0.03884141 0.27840382 0.289813
0.37019455 -0.34650323 -0.20440292 -0.18624939 -0.1036908 -0.16785194 0.07109706 -0.017410439
0.09026122 0.22505255 0.016250968 0.090350375 -0.09777439 -0.065823 -0.14277005 -0.28432134
-0.052873865 -0.051059905 -0.1324119 0.039554007 -0.12604487 0.069673546 0.489966 0.0046474645
-0.2884917 -0.11117343 0.41560525 -0.20468113 0.3838891 -0.5216255 0.15853588 0.16565284
-0.2627873 -0.012849384 -0.3847922 0.03328956 -0.10347865 -0.08988741 0.1049457 0.04505317
0.013042905 0.017460058 -0.028040579 -0.029570995 -0.12801775 -0.019373607 -0.028085558 -0.150076
-0.0018944335 -0.054328486 -0.077285565 0.32535672 0.023048442 0.21589714 -0.2517971 -0.13779509
-0.23876119 -0.18538357 0.02031188 0.3957306 -0.48800662 -0.030860433 -0.33626282 -0.25378
-0.20824426 -0.06752953 0.14088535 0.019667173 0.14191775 0.024041934 0.13716659 -0.09135431
0.15008499 0.016825866 -0.016350983 -0.030331716 -0.052803516 0.15326048 0.09118289 -0.11290351
-0.20319444 -0.18109292 -0.10316656 0.35725954 0.12771906 0.22254017 -0.18125868 0.050430086
0.26000762 -0.2225018 0.27648845 -0.11627421 -0.20576294 0.113643646 0.06767195 0.22102839
00000000: 5b85 88be a2bf 12be 5143 59be ad64 b5bc
00000010: 7a00 18be 0bd1 f73d 85e8 5e3e 809d 983e
00000020: 53c6 a7bb 61e8 3dbd 752f 523e 3b38 5e3e
00000030: 1c3f 99bc ca61 1dbe 3433 50bd 99a0 b03b
00000040: 165c ef3d cf4b 82be 2c39 ecbd 462d 26be
00000050: 4c71 b4bc c1b5 9cbb 3027 953e fffe c63d
00000060: 59e9 bc3e 3b15 0c3e 3054 6abe 19f9 a23d
00000070: a0d5 543e 3bf5 3bbd 0038 f9bd 3047 8e3e
00000080: 510d bd3e c277 e63d 4b2c 15bd 785d adbd
00000090: 2673 90bd 25b9 cabd 58c5 debd 40dc e13d
000000a0: de3a c0bb e97f 403e 9a83 803e dd81 2abe
000000b0: 1dae 463e 3b4d e1bc 6cb6 0d3e ae04 e6bd
000000c0: b87b 53be 16fb 1ebe 32ce c7bd db5a d5bd
000000d0: 10ed 5c3e 63db 38bd b322 c63c 279a d5bd
000000e0: 44ed 4abe 40ae 1ebe ce49 7c3d 1ec7 723e
000000f0: a779 82bd 45ce e03d 1766 dcbd 7d13 e6bd
00000100: f14b d03c f804 14bd 02db cb3c 8e19 41bc
00000110: 3e82 5d3d e6fb 063e b1ba f9bd 889d 30bd
00000120: 16d7 01be 4497 e83d 0120 f63d f2b8 40be
00000130: 7454 103e dbc2 83bd 5df5 3cbd 5811 703d
00000140: ff89 c03d ecd3 d8bc 31f7 7fbd ec3f dcbd
00000150: 4b48 a13c 3258 73be c0c2 bbbd 819e 30be
00000160: 3d1a 213e 2bf8 08bd 0598 75be 8aa1 833d
00000170: 71c6 8bbe 91c8 59be c922 0bbe 032c 86be
00000180: a8e9 09bd 1f46 093e 23ef 3bbd 1797 85bc
00000190: fa51 62be ffdf 013e a17b 373e d175 abbe
000001a0: cc00 a03e 8e4f 05bf b348 b83e f1c8 fdbe
000001b0: 7fdc e13e 7a1d a5be 4dbf 5dbd 4ef6 aa3e
000001c0: c255 14be dee7 06bd 1f78 a53d 13b5 943e
000001d0: 7d75 d63d 385e 0f3e 13a0 8abe 7bd7 3c3e
000001e0: 5758 513e e9e6 88be 8c6e 99bd 0b08 8f3d
000001f0: 9375 253e feb2 1abe d754 db3d 7c1f 2cbe
00000200: 0a38 623d 0b8b 54be f5e0 c83c 9070 11bd
00000210: 8cc9 50bd 4df6 4ebe 5db9 22bd fce0 ad3b
00000220: c3ca 91be 2726 423d c009 453d 65a7 14be
00000230: a2fb 79bc 4fb3 40bd 6637 27be 7de3 d03d
00000240: b431 4fbd 05a5 94bd a843 cd3c bd1a 293e
00000250: 468b d13c fe7d a7bd 827b afbe 79eb a3be
00000260: 12cb 833e 043f 043c 3745 733e c825 153e
00000270: 1a18 b1be 2c18 1fbd f28a 8e3e 5f62 943e
00000280: 248a bd3e df68 b1be 004f 51be 29b8 3ebe
00000290: d85b d4bd 61e1 2bbe 569b 913d 56a0 8ebc
000002a0: e0da b83d 2d74 663e c020 853c 9e09 b93d
000002b0: f03d c8bd 36ce 86bd 5032 12be 9192 91be
000002c0: 4492 58bd 3124 51bd fc96 07be 6203 223d
000002d0: e811 01be 01b1 8e3d d3dc fa3e c249 983b
000002e0: 2fb5 93be e5ae e3bd 36ca d43e ee97 51be
000002f0: 1d8d c43e 4089 05bf 3b57 223e e6a0 293e
00000300: 0f8c 86be 3986 52bc 7c03 c5be a25a 083d
00000310: 9dec d3bd e416 b8bd c5ed d63d ac89 383d
00000320: e9b1 553c 6508 8f3c 5bb5 e5bc df3e f2bc
00000330: 1617 03be 66b5 9ebc af13 e6bc 86ad 19be
00000340: a44e f8ba 8c87 5ebd e547 9ebd 2895 a63e
00000350: 16d0 bc3c 2414 5d3e 8deb 80be 281a 0dbe
00000360: d07d 74be 31d5 3dbe 1a65 a63c 349d ca3e
00000370: 01dc f9be 05cf fcbc a42a acbe 74ef 81be
00000380: fc3d 55be ec4c 8abd 4044 103e 0d1d a13c
00000390: e352 113e 97f3 c43c 6675 0c3e f817 bbbd
000003a0: e1af 193e 66d6 893c 7ff2 85bc 387a f8bc
000003b0: 8048 58bd 51f0 1c3e 18be ba3d f539 e7bd
000003c0: 3412 50be 6c70 39be fd48 d3bd b9ea b63e
000003d0: c9c8 023e 92e1 633e e09b 39be c78f 4e3d
000003e0: b81f 853e 83d7 63be e58f 8d3e 2c21 eebd
000003f0: 85b3 52be 00be e83d 9797 8a3d 4455 623e

fc_mu.bias f4 [20]
0.032374583 -0.11471384 -0.44754767 0.3249292 0.032806538 0.26801458 0.525736 -0.08136967
0.24570917 0.22105226 0.13710707 0.21418697 0.0012813589 0.19180055 0.41514757 -0.18629168
-0.0659834 -0.5999746 -0.33255932 -0.57124436
00000000: 369b 043d 17ef eabd f824 e5be 1f5d a63e
00000010: 2660 063d 3539 893e a296 063f 24a5 a6bd
00000020: 2f9b 7b3e 865b 623e cc65 0c3e d453 5b3e
00000030: 45f3 a73a 5d67 443e 398e d43e 3fc3 3ebe
00000040: 4e22 87bd ef97 19bf 3745 aabe 123d 12bf

fc_logvar.weight f4 [20, 15]
-0.14735046 -0.04427046 -0.009199247 0.07471864 -0.11683898 -0.12585905 -0.23236975 0.004224286
0.03999421 -0.062055495 -0.12692532 -0.13059822 0.11374099 -0.052618407 -0.17609963 0.13543649
-0.085173085 0.090778686 0.13404888 -0.107580766 0.13310243 0.11468592 0.12875037 -0.053221464
-0.061114524 0.03970214 -0.11058661 0.035048965 -0.16362655 -0.10989208 -0.07345445 0.15937826
-0.13368356 -0.19894847 0.17267172 -0.1516371 0.026710724 -0.09985312 0.051173817 0.032691233
-0.17681964 -0.14606206 -0.004922622 -0.052261237 0.024057487 0.08432952 0.09685216 0.049551718
0.0040075895 -0.14423583 0.14786324 -0.0177994 0.15999837 0.013206313 0.012392804 0.109292105
0.0027058413 -0.013563814 -0.037614275 0.0013165196 -0.10058759 -0.03592558 -0.041402888 -0.007486484
0.024072986 -0.097500525 0.023142278 0.1024003 0.100750186 0.027673677 -0.08874773 0.04792091
0.071864635 -0.101557575 -0.019404493 0.07250317 0.047477618 0.035109397 0.037514094 -0.041047923
0.014623923 -0.029167622 0.109819494 -0.043502625 -0.0066328337 0.07076154 -0.04354294 -0.10800396
0.040066518 0.007631305 -0.08667087 0.057150964 -0.026944965 -0.04588517 0.010636182 -0.13418083
-0.116546206 -0.16299495 -0.09749156 0.053506255 0.0066684615 -0.2593893 -0.0036281224 0.030300282
-0.2696465 -0.5991669 -0.46879235 -0.56905663 -0.5295764 -0.28213713 -0.770126 -0.63307387
-0.029401112 -0.38104704 -0.5081237 -0.50079083 -0.669531 -0.24418975 -0.116392076 -0.3664016
-0.047307972 -0.028390434 -0.01638532 0.022876628 -0.019857597 -0.07048607 -0.0931462 0.073384784
0.06704174 0.008025399 0.054131016 0.10453873 0.0070338207 0.032783218 -0.04220281 -0.05674908
0.0036391441 0.11035553 -0.011929999 -0.1217973 0.06842857 -0.041532323 -0.06103078 -0.072908185
0.029358197 0.04403671 0.100259736 -0.020804217 0.043019544 0.0073717376 -0.5237532 -0.35751158
-0.3603025 -0.66031206 -0.22698593 -0.6346079 -0.5776395 -0.24177164 -0.40722695 -0.2775423
-0.44883144 -0.5403867 -0.1380776 -0.10801319 -0.17302047 -0.007066002 0.054210417 -0.07811856
-0.063753895 0.009660212 0.056702133 0.028142706 -0.012231606 -0.0049448754 -0.012363812 0.015736986
-0.055795293 0.043891627 -0.10790798 -0.11681638 -0.44142884 -0.5935444 -0.64895445 -0.3959966
-0.35889277 -0.7231034 -0.5058137 -0.17535067 -0.4016979 -0.6518466 -0.37025583 -0.7203059
0.04627239 -0.055537686 -0.36458516 0.04569573 -0.0019774605 0.062131383 0.05482279 -0.03354553
-0.0042297794 -0.1005948 0.06228647 -0.06011806 -0.053765837 0.17546648 0.108799875 -0.04069321
0.004498649 -0.020609401 -0.38554555 -0.3608016 -0.36732304 -0.3670753 -0.20668381 -0.69895786
-0.41355735 -0.37958848 -0.6108081 -0.4696153 -0.3753396 -0.66857415 -0.14499846 -0.30263793
-0.46806368 -0.0032634863 -0.0042471695 -0.029274926 0.07085787 0.10645189 0.044351034 0.099922396
0.02552387 0.1400875 0.016781209 -0.068655536 0.06516371 0.03726357 -0.10982275 -0.050069973
-0.061703667 0.029410975 -0.23628253 -0.14193213 -0.1633466 -0.35871542 -0.26816246 -0.19463836
-0.018594323 -0.29466614 -0.25782686 -0.20915055 0.12588376 -0.060529433 -0.37841544 0.016519517
00000000: 0ae3 16be f154 35bd 70b8 16bc 1606 993d
00000010: 4649 efbd 32e1 00be 56f2 6dbe e16b 8a3b
00000020: f8d0 233d e72d 7ebd b6f8 01be 8abb 05be
00000030: 09f1 e83d 6686 57bd 7653 34be ddaf 0a3e
00000040: 3a6f aebd 2dea b93d 1c44 093e 4e53 dcbd
00000050: 014c 083e 74e0 ea3d 23d7 033e c0fe 59bd
00000060: 3953 7abd b69e 223d 3c7b e2bd 818f 0f3d
00000070: b88d 27be 190f e1bd 496f 96bd 0e34 233e
00000080: 58e4 08be 26b9 4bbe dbd0 303e c246 1bbe
00000090: 73d0 da3c cb7f ccbd a39b 513d 3ee7 053d
000000a0: 3510 35be 4b91 15be f24d a1bb e10f 56bd
000000b0: 3514 c53c f5b4 ac3d 6d5a c63d bef6 4a3d
000000c0: 1952 833b 8fb2 13be 7669 173e 0cd0 91bc
000000d0: 9dd6 233e 4b5f 583c 300b 4b3c 8ad4 df3d
000000e0: 7c54 313b c23a 5ebc 6d11 1abd 118f ac3a
000000f0: de00 cebd b326 13bd 1396 29bd 2e51 f5bb
00000100: b634 c53c 5bae c7bd e094 bd3c 40b7 d13d
00000110: 1d56 ce3d e8b3 e23c 5fc1 b5bd b748 443d
00000120: c42d 933d 6bfd cfbd 2cf6 9ebc 8b7c 943d
00000130: e477 423d dfce 0f3d 61a8 193d de21 28bd
00000140: 2e99 6f3c f0f0 eebc 0be9 e03d cf2f 32bd
00000150: 3e58 d9bb 6deb 903d 155a 32bd 2e31 ddbd
00000160: ca1c 243d 0710 fa3b 7f80 b1bd 2117 6a3d
00000170: b0bb dcbc 17f2 3bbd 6143 2e3c b366 09be
00000180: c7af eebd 26e8 26be a8a9 c7bd 6029 5b3d
00000190: 1c83 da3b adce 84be cbc5 6dbb 4c38 f83c
000001a0: 1b0f 8abe 0163 19bf 8d05 f0be b2ad 11bf
000001b0: 5292 07bf 4774 90be fa26 45bf 2111 22bf
000001c0: 9ada f0bc 9918 c3be 6514 02bf d433 00bf
000001d0: 6266 2bbf e10c 7abe f85e eebd fe98 bbbe
000001e0: 01c6 41bd 0e93 e8bc 823a 86bc c467 bb3c
000001f0: 66ac a2bc 005b 90bd 6fc3 bebd c34a 963d
00000200: 2e4d 893d f77c 033c 7cb8 5d3d 6718 d63d
00000210: f77b e63b b247 063d dbdc 2cbd b971 68bd
00000220: b57e 6e3b 1502 e23d 0b76 43bc dd70 f9bd
00000230: 4724 8c3d cc1d 2abd 69fb 79bd e350 95bd
00000240: 9a80 f03c d65f 343d fa54 cd3d 9b6d aabc
00000250: 4335 303d 9e8e f13b b114 06bf c20b b7be
00000260: 9279 b8be 360a 29bf 006f 68be aa75 22bf
00000270: 2fe0 13bf fc92 77be 0d80 d0be 061a 8ebe
00000280: 3ccd e5be c856 0abf 3764 0dbe 0536 ddbd
00000290: 472c 31be ec89 e7bb be0b 5e3d a0fc 9fbd
000002a0: 6791 82bd de45 1e3c 7f40 683d 888b e63c
000002b0: 1367 48bc 9f08 a2bb 9691 4abc daea 803c
000002c0: 9b89 64bd b5c7 333d dcfe dcbd 6d3d efbd
000002d0: f602 e2be 87f2 17bf e121 26bf 11c0 cabe
000002e0: cbc0 b7be 4e1d 39bf 027d 01bf 208f 33be
000002f0: 59ab cdbe 6bdf 26bf 2c92 bdbe f865 38bf
00000300: 1e88 3d3d 7c7b 63bd e8aa babe 722b 3b3d
00000310: 4898 01bb 7a7d 7e3d dd8d 603d 0a67 09bd
00000320: f699 8abb a604 cebd 1920 7f3d 5b3e 76bd
00000330: 9139 5cbd 7cad 333e 78d2 de3d ecad 26bd
00000340: 6769 933b 0cd5 a8bc 3a66 c5be fdba b8be
00000350: c411 bcbe 4bf1 bbbe eca4 53be e7ee 32bf
00000360: cabd d3be 6c59 c2be eb5d 1cbf 6b71 f0be
00000370: 832c c0be ad27 2bbf 7a7a 14be 5cf3 9abe
00000380: 0ba6 efbe 37e0 55bb d72b 8bbb f8d1 efbc
00000390: ee1d 913d 7303 da3d 6ea9 353d 1da4 cc3d
000003a0: 6f17 d13c 1973 0f3e bf78 893c 469b 8cbd
000003b0: 8d74 853d afa1 183d c0ea e0bd 2c16 4dbd
000003c0: fcbc 7cbd 49ef f03c 0cf4 71be a856 11be
000003d0: 5544 27be 8ca9 b7be 974c 89be 474f 47be
000003e0: 1f53 98bc 7bde 96be e201 84be 902b 56be
000003f0: ace7 003e b6ed 77bd abbf c1be f053 873c

fc_logvar.bias f4 [20]
-0.16620925 -0.1507342 -0.26378548 -0.29223442 0.06667346 -0.15579905 -0.18891732 -0.6607761
-0.049427446 -0.07728289 -0.7833568 0.06497123 -0.86068124 -0.13790314 -0.9651228 -0.20787413
-0.18810758 0.0031471746 -0.121443816 0.03846063
00000000: c232 2abe 115a 1abe e40e 87be c09f 95be
00000010: 188c 883d c989 1fbe 8b73 41be 9f28 29bf
00000020: 6f74 4abd 7e46 9ebd 128a 48bf a30f 853d
00000030: 9b55 5cbf 7b36 0dbe 4a12 77bf f5dc 54be
00000040: 469f 40be d440 4e3b 89b7 f8bd e588 1d3d

fc4.weight f4 [15, 20]
0.14300515 -0.049432673 0.025248207 0.07011672 0.022319283 0.048485924 0.09356465 0.061876178
-0.04151713 -0.04234547 -0.056529332 0.073431246 -0.2203827 0.011355888 -0.42357412 0.013561575
-0.14571398 -0.029353375 -0.031992752 -0.030784937 -0.076024316 -0.015597404 0.04549216 -0.0019466528
-0.0031938406 0.006947928 0.048947718 -0.14684121 0.008860996 0.0044256207 0.10347759 0.007919521
0.43162996 -0.0075714514 0.18723857 0.0028650637 -0.025853883 0.004639936 -0.012336376 -0.0056605674
-0.13469839 0.044286184 0.053996585 0.028258532 0.009112464 -0.019922737 -0.08040537 -0.09902088
-0.020506665 0.0201668 0.23576239 -0.015252913 -0.45346683 -0.0011950597 0.2628077 -0.00041943058
-0.019257315 0.007382164 -0.00067450805 -0.005902949 0.037163597 -0.046223845 0.037114866 -0.003409107
-0.004856679 0.045794994 0.10101498 0.45855182 0.0071618054 -0.0061619044 -0.2531637 0.02803507
-0.13737315 -0.0045400667 -0.092506476 0.018088844 -0.09065323 -0.009144954 -0.0075329156 -0.0053174403
-0.058290403 -0.013338876 -0.07442664 0.04783239 0.008770063 -0.055777065 0.026489917 0.18122081
-0.0072198506 0.008166 0.3074956 -0.034455698 -0.07538131 0.010121717 -0.17649151 -0.020020256
0.11779578 -0.017659094 -0.036785718 -0.037167 0.11348891 -0.045014057 -0.044728342 -0.018199515
-0.020487128 0.014076293 0.020648807 0.3248287 0.033311162 -0.01192253 0.15212515 0.026424175
-0.099035546 0.026752185 0.38106635 -0.0028337243 -0.09009766 -0.023381855 -0.036349546 -0.025291368
-0.0223353 0.005192002 0.04456495 -0.021858983 -0.0005702561 -0.029333666 0.07490933 0.014394376
0.036870733 0.0021890863 -0.35836518 -0.013318836 -0.1856715 0.009219815 -0.26841918 -0.019837048
-0.08179032 -0.003195959 -0.022509027 -0.019428687 0.090243354 -0.026414683 -0.1974432 -0.015064269
-0.007818626 0.02480525 -0.12485443 -0.36716172 -0.021790355 -0.00051130046 0.060902756 -0.036883645
-0.25953332 -0.0136333285 -0.16661033 0.010017693 0.20319231 -0.010686476 0.031294957 0.036820013
0.031764768 -0.021724539 -0.09727529 0.018652758 -0.0010110663 -0.02200827 -0.090607174 0.12761948
-0.038405668 -0.018340623 -0.21938294 -0.008461603 0.42592436 -0.012478847 -0.28294396 0.0147236455
-0.021690281 -6.628074e-05 0.020890707 0.01660019 -0.015985977 -0.008371636 0.043593436 -0.03717869
-0.012474794 0.042419944 -0.030468913 0.20025645 0.04626087 0.0079654325 0.1667019 0.019130114
0.08905316 0.017756475 -0.35380945 -0.0029686603 0.080940835 0.024172213 -0.019620573 -0.016813677
0.06685068 0.06045409 0.020529049 0.011313618 0.010252577 -0.018995855 0.014623499 0.18631524
0.025599865 0.018950995 0.17811468 -0.03243774 0.4867661 0.015694413 0.032913174 -0.0072332635
-0.072046235 -0.030672647 0.005144639 0.012441299 -0.09276455 0.015427934 0.013255124 0.012101673
0.00688382 -0.012114168 -0.08474416 0.360105 -0.012260054 0.0029485377 -0.2586243 -0.011278491
0.07504097 0.0002913079 0.16674592 0.0064906306 0.07186519 0.009256788 -0.00027560574 -0.01086775
0.0027233614 0.0860928 0.10687263 -0.028037919 0.004078725 -0.019873148 0.023036337 0.40275624
-0.059762098 -0.0023250938 0.12424372 -0.042612232 -0.2325402 -0.032726053 -0.16893204 0.025907144
00000000: f16f 123e ea79 4abd 54d5 ce3c 5b99 8f3d
00000010: eed6 b63c 2d99 463d d39e bf3d e071 7d3d
00000020: de0d 2abd 7272 2dbd 4d8b 67bd 1f63 963d
00000030: 01ac 61be 0c0e 3a3c b5de d8be 5e31 5e3c
00000040: 0c36 15be 7d76 f0bc d50a 03bd b130 fcbc
00000050: a3b2 9bbd 418c 7fbc fd55 3a3d d426 ffba
00000060: c14f 51bb 72ab e33b 677d 483d 8b5d 16be
00000070: b62d 113c cc04 913b 0fec d33d e1c0 013c
00000080: 9afe dc3e f019 f8bb 78bb 3f3e cbc3 3b3b
00000090: 86cb d3bc 9b0a 983b 831e 4abc 487c b9bb
000000a0: 60ee 09be 6e65 353d 862b 5d3d 707e e73c
000000b0: 724c 153c 0235 a3bc 92ab a4bd 76cb cabd
000000c0: 98fd a7bc d834 a53c b26b 713e 5be7 79bc
000000d0: ce2c e8be 8da3 9cba bb8e 863e 05e7 dbb9
000000e0: 84c1 9dbc 14e6 f13b 78d1 30ba 866d c1bb
000000f0: db38 183d 3755 3dbd c205 183d 536b 5fbb
00000100: c724 9fbb 8893 3b3d f1e0 ce3d 4ec7 ea3e
00000110: 94ad ea3b cde9 c9bb ac9e 81be cea9 e53c
00000120: 8cab 0cbe d7c4 94bb 0974 bdbd 0e2f 943c
00000130: 67a8 b9bd b8d4 15bc add6 f6bb ec3d aebb
00000140: ebc1 6ebd 4d8b 5abc ff6c 98bd e5eb 433d
00000150: 4fb0 0f3c 7e76 64bd 6201 d93c f391 393e
00000160: 7f94 ecbb b0ca 053c 1070 9d3e 6b21 0dbd
00000170: 8461 9abd 8fd5 253c 31ba 34be 8501 a4bc
00000180: ea3e f13d cea9 90bc 9fac 16bd 6d3c 18bd
00000190: e06c e83d a960 38bd 1135 37bd 2617 95bc
000001a0: 9fd4 a7bc 41a0 663c b027 a93c f34f a63e
000001b0: 4971 083d b756 43bc b2c6 1b3e 8377 d83c
000001c0: 26d3 cabd 6627 db3c 211b c33e 01b6 39bb
000001d0: 1f85 b8bd 4e8b bfbc 43e3 14bd d82f cfbc
000001e0: 85f8 b6bc ab21 aa3b bd89 363d 9c11 b3bc
000001f0: 3d7d 15ba 284d f0bc 106a 993d 64d6 6b3c
00000200: c405 173d c676 0f3b a47b b7be 3f37 5abc
00000210: ab20 3ebe b50e 173c 3d6e 89be 4e81 a2bc
00000220: af81 a7bd 4b73 51bb da64 b8bc e928 9fbc
00000230: 82d1 b83d 9b63 d8bc 8d2e 4abe 20d0 76bc
00000240: b219 00bc 6134 cb3c aeb3 ffbd 9ffc bbbe
00000250: b081 b2bc cb08 06ba 2b75 793d 4e13 17bd
00000260: 8de1 84be 535e 5fbc e69b 2abe 4021 243c
00000270: a511 503e 5416 2fbc 242f 003d 95d0 163d
00000280: c61b 023d a9f7 b1bc 4438 c7bd abcd 983c
00000290: c185 84ba b04a b4bc 4190 b9bd aeae 023e
000002a0: 434f 1dbd 133f 96bc eca5 60be 89a2 0abc
000002b0: c212 da3e 1474 4cbc 08de 90be 723b 713c
000002c0: d1af b1bc 3400 8bb8 fd22 ab3c 1ffd 873c
000002d0: 06f5 82bc 3029 09bc 088f 323d af48 18bd
000002e0: 1463 4cbc 89c0 2d3d f199 f9bc 0710 4d3e
000002f0: 0a7c 3d3d 7281 023c e7b3 2a3e c2b6 9c3c
00000300: 8161 b63d 0776 913c 8326 b5be db8d 42bb
00000310: 4fc4 a53d ce04 c63c 53bb a0bc d6bc 89bc
00000320: 02e9 883d b59e 773d 892c a83c c15c 393c
00000330: 6dfa 273c 329d 9bbc 6697 6f3c 6cc9 3e3e
00000340: cfb6 d13c 1e3f 9b3c b263 363e 70dd 04bd
00000350: 6839 f93e 9291 803c f7cf 063d 0305 edbb
00000360: fa8c 93bd 3445 fbbc 5c94 a83b 97d6 4b3c
00000370: 57fb bdbd 72c5 7c3c 052c 593c 1846 463c
00000380: ab91 e13b 817a 46bc 598e adbd af5f b83e
00000390: 65de 48bc 413c 413b 676a 84be 6bc9 38bc
000003a0: 15af 993d afba 9839 71bf 2a3e 5baf d43b
000003b0: 0f2e 933d c8a9 173c 2d7f 90b9 a60e 32bc
000003c0: 6c7a 323b 6c51 b03d 0ae0 da3d c7af e5bc
000003d0: d3a6 853b 03cd a2bc b3b6 bc3c 1136 ce3e
000003e0: 1ac9 74bd 9a60 18bb 7e73 fe3d 2a8a 2ebd
000003f0: 051f 6ebe c10b 06bd 85fc 2cbe 383b d43c

fc4.bias f4 [15]
-5.7292334e-07 -6.779307e-07 -2.9523528e-07 2.3810095e-07 -4.5359247e-08 4.0791383e-06 2.6346936e-06 1.4334879e-06
5.9534773e-06 -5.203012e-06 -3.0439404e-07 -2.9840058e-07 1.4118147e-07 1.5929182e-07 8.9991426e-07
00000000: feca 19b5 0bfb 35b5 d480 9eb4 b1a8 7f34
00000010: 05d1 42b3 88df 8836 b1cf 3036 4566 c035
00000020: fbc3 c736 8895 aeb6 996b a3b4 dd33 a0b4
00000030: ab97 1734 cd09 2b34 a391 7135

bn4.weight f4 [15]
0.7670047 0.9393172 0.8741042 0.87594444 0.65144014 0.7763334 0.95645785 0.8757821
0.84818834 0.8395221 0.78652364 0.8120683 0.72138625 0.8809359 0.83119
00000000: 6c5a 443f 1877 703f 4bc5 5f3f e53d 603f
00000010: c8c4 263f c9bd 463f 6cda 743f 4133 603f
00000020: df22 593f ecea 563f 9d59 493f b5e3 4f3f
00000030: c5ac 383f 0485 613f dec8 543f

bn4.bias f4 [15]
-0.10950383 0.04524807 -0.0076284716 0.0070298132 0.24233633 0.25147486 -0.06325429 -0.09781129
0.086408235 0.24691729 0.24949624 0.05469353 0.07982988 0.011904645 0.103726946
00000000: 8b43 e0bd 0a56 393d 42f8 f9bb 595a e63b
00000010: 0427 783e 50c1 803e 778b 81bd 4951 c8bd
00000020: cdf6 b03d e3d7 7c3e f17b 7f3e 5306 603d
00000030: d97d a33d b30b 433c cb6e d43d

bn4.running_mean f4 [15]
-0.007964354 -0.001544386 -0.006108659 0.0026928922 -0.0017370892 0.0022334505 -0.0022321537 0.0040514837
0.0044218623 -0.008782325 0.0050230836 0.0046775155 0.017375484 -0.014403334 0.0026403547
00000000: ec7c 02bc ff6c caba 252b c8bb 3c7b 303b
00000010: 0baf e3ba 155f 123b 5349 12bb 4fc2 843b
00000020: 45e5 903b bee3 0fbc ae98 a43b d845 993b
00000030: 0857 8e3c f6fb 6bbc cd09 2d3b

bn4.running_var f4 [15]
0.50532264 0.41262037 0.539866 0.52199197 0.23305967 0.3863486 0.4712666 0.5562901
0.48773023 0.3115651 0.52333385 0.35842738 0.36803105 0.6896096 0.55179393
00000000: d35c 013f fa42 d33e a834 0a3f 44a1 053f
00000010: 32a7 6e3e 7ccf c53e db49 f13e 0769 0e3f
00000020: c7b7 f93e 7685 9f3e 35f9 053f cb83 b73e
00000030: 916e bc3e 418a 303f 5e42 0d3f
