vae_model.pth (torch, 123374 bytes, 42 tensors)

fc1.weight f4 [120, 27]
0.12369463 0.07345358 0.2239878 -0.21504745 0.0058094724 -0.069709405 0.18188114 0.08990818
-0.057422966 0.12711135 0.18931875 -0.24012497 0.11324496 -0.04166027 0.11232688 0.056227636
0.13934813 5.83055e-40 -0.1128045 -0.06851491 0.06023569 -0.10627769 0.16264775 0.06116427
-0.07450788 -0.04278522 -4.94335e-40 0.11185906 0.11028995 -0.24094433 -0.14920221 -0.20605002
0.12195145 -0.06912212 0.09877069 -0.084398 -0.006151113 0.077639036 -0.0607485 -0.079486504
-0.11773911 -0.15711217 -0.20711286 0.040162936 -4.92712e-40 -0.15390754 -0.009026033 0.2939717
-0.0063206134 0.08027506 0.18416065 0.021335198 -0.075180694 5.04183e-40 -0.10960576 0.18718451
0.23965172 0.14471579 -0.15150577 -0.00105111 0.030287724 0.1862463 0.030793585 -0.08288906
-0.005933139 0.01598493 -0.13911226 0.022417014 -0.12462804 0.27102366 0.08050696 5.01686e-40
-0.0634455 0.086697176 -0.030718751 0.044590928 0.31311592 -0.008982261 -0.097259566 0.048075363
4.99116e-40 0.06352919 0.100590564 0.03142417 -0.058274616 0.08804013 -0.0687832 -0.30709133
-0.106183514 0.12664723 -0.005842354 0.081095904 0.0763942 0.1069694 -0.021248318 0.17921889
-0.07099586 -0.04931583 4.9088e-40 0.105799034 -0.13618553 -0.13801973 -0.109230906 0.15186615
0.015432813 -0.09598588 -0.1328513 4.97858e-40 0.05608812 0.037743073 -0.07685287 0.09533801
0.058902875 -0.20402323 -0.0046121255 -0.03429413 -0.262311 0.09039541 0.17877541 -0.060373943
0.1097444 0.0743314 0.041538354 -0.032804925 0.14249761 -5.19771e-40 -0.043783035 -0.19032642
-0.16661449 -0.03738094 -0.15284964 -0.13382635 0.16191481 0.07265918 5.21845e-40 0.07595292
0.039514855 0.032522973 0.06188257 -0.020328486 0.35939878 -0.024501778 -0.11653211 -0.04527913
0.071179576 -0.0111599425 -0.103695236 0.052453008 -0.09790668 -0.013691552 -0.10563181 -0.0978953
-5.0392e-40 -0.058385853 -0.01317834 0.008541703 -0.045308683 -0.22807533 -0.052348394 -0.017075498
0.0043125395 -4.92081e-40 -0.0741223 -0.05591159 0.051953908 -0.055315066 -0.07219734 0.015213919
0.08435096 -0.095964305 -0.3251314 -0.20334564 -0.09491821 -0.06981275 0.019326197 -0.025016913
0.07039132 -0.20023534 -0.17064966 5.87563e-40 -0.0625204 0.1793035 0.11658705 -0.035935648
-0.2683001 -0.10202056 -0.029489027 0.091209695 -5.05213e-40 0.21271211 0.012859009 -0.0036810047
0.0890476 -0.049878195 0.0058522588 0.2339938 0.10300931 0.07088161 0.12282824 -0.14100249
0.111811996 -0.1333274 0.09122982 0.17999527 0.0118510965 -0.032105412 5.15993e-40 -0.05968271
-0.14280508 -0.07533246 -0.104495175 -0.044071402 0.0014984604 -0.08270345 0.023820125 4.96689e-40
0.09740066 -0.019614002 0.103592016 -0.0010683535 -0.034773014 -0.16963343 0.18848325 0.0762594
-0.006215333 -0.04576385 -0.06469333 0.114962034 0.08467909 -0.1253136 0.11994352 -0.09817474
-0.042762022 -5.34658e-40 -0.043408994 -0.17261125 -0.20610633 -0.0032467193 -0.11738472 0.016937142
0.10612958 -0.14302197 -4.9403e-40 0.074329875 -0.030400174 -0.078790806 -0.08178138 -0.01712145
0.22970772 -0.23713438 -0.10432261 0.05858109 -0.09751668 -0.032044154 -0.2109275 -0.025390882
00000000: 9c53 fd3d d56e 963d 0f5d 653e 6635 5cbe
00000010: 635d be3b cec3 8ebd 0d3f 3a3e c821 b83d
00000020: 5834 6bbd 7a29 023e c6dc 413e 52e3 75be
00000030: f9ec e73d f6a3 2abd a30b e63d f34e 663d
00000040: 47b1 0e3e 5259 0600 0c06 e7bd 8c51 8cbd
00000050: b3b9 763d 1ea8 d9bd 228d 263e 6387 7a3d
00000060: 9697 98bd 8e3f 2fbd 0162 0580 5d16 e53d
00000070: b3df e13d 1cba 76be 77c8 18be c7fe 52be
00000080: afc1 f93d e68f 8dbd 4a48 ca3d dcd8 acbd
00000090: 478f c9bb 3701 9f3d 6bd3 78bd d2c9 a2bd
000000a0: 3421 f1bd 03e2 20be 6515 54be e481 243d
000000b0: 7b5d 0580 f099 1dbe ede1 13bc 7583 963e
000000c0: 261d cfbb 4067 a43d 9c94 3c3e 27c7 ae3c
000000d0: 56f8 99bd 757d 0500 fc78 e0bd 4cad 3f3e
000000e0: 4367 753e 6030 143e 5424 1bbe 66c5 89ba
000000f0: f61d f83c 5ab7 3e3e d442 fc3c bdc1 a9bd
00000100: c76a c2bb d4f2 823c 7273 0ebe e3a3 b73c
00000110: fc3c ffbd 9dc3 8a3e d5e0 a43d 7f76 0500
00000120: b7ef 81bd 4a8e b13d e4a5 fbbc faa4 363d
00000130: bb50 a03e 552a 13bc 0630 c7bd acea 443d
00000140: 556f 0500 981b 823d 6d02 ce3d a1b6 003d
00000150: 5db1 6ebd 624e b43d 35de 8cbd 133b 9dbe
00000160: be76 d9bd d0af 013e 3871 bfbb 9c15 a63d
00000170: 9074 9c3d c612 db3d f410 aebc 2885 373e
00000180: 4766 91bd 65ff 49bd 6058 0500 2aad d83d
00000190: 3874 0bbe 0b55 0dbe 74b4 dfbd cd82 1b3e
000001a0: e9d9 7c3c 3f94 c4bd 2c0a 08be d36b 0500
000001b0: a8bc 653d 7b98 1a3d 0a65 9dbd 9340 c33d
000001c0: 2444 713d 77eb 50be 5021 97bb 0078 0cbd
000001d0: a14d 86be 3b21 b93d e710 373e ab4a 77bd
000001e0: acc1 e03d 103b 983d 1f24 2a3d 755e 06bd
000001f0: e5ea 113e e9a8 0580 d755 33bd eee4 42be
00000200: fd9c 2abe c21c 19bd 9e84 1cbe c609 09be
00000210: ffcc 253e 56ce 943d b1ae 0500 348d 9b3d
00000220: 54da 213d cf36 053d 9478 7d3d ed87 a6bc
00000230: 1e03 b83e f4b7 c8bc 63a8 eebd 9c76 39bd
00000240: 99c6 913d 31d8 36bc 2b5e d4bd f7d8 563d
00000250: 4c83 c8bd 8852 60bc 7e55 d8bd 557d c8bd
00000260: b97c 0580 0126 6fbd f7e9 57bc 80f2 0b3c
00000270: 9995 39bd 948c 69be 456b 56bd eae1 8bbc
00000280: 3450 8d3b b95b 0580 6fcd 97bd 8d03 65bd
00000290: 9fcd 543d 0d92 62bd 33dc 93bd cd43 793c
000002a0: 32c0 ac3d ef88 c4bd 9f77 a6be d739 50be
000002b0: 7a64 c2bd fdf9 8ebd f951 9e3c 45f0 ccbc
000002c0: 5329 903d 7e0a 4dbe c9be 2ebe e365 0600
000002d0: b20a 80bd 569b 373e 31c5 ee3d 4231 13bd
000002e0: a15e 89be 28f0 d0bd f992 f1bc 26cc ba3d
000002f0: 5480 0580 34d1 593e 98ae 523c 033d 71bb
00000300: 975e b63d 144d 4cbd 4ec4 bf3b 129c 6f3e
00000310: 8cf6 d23d 612a 913d 5f8d fb3d f562 10be
00000320: b0fd e43d fa86 08be b3d6 ba3d ae50 383e
00000330: 1a2b 423c f780 03bd 619e 0500 db75 74bd
00000340: 7f3b 12be e847 9abd 9101 d6bd 3784 34bd
00000350: fd67 c43a 6d60 a9bd 6c22 c33c 9168 0500
00000360: ff79 c73d 8bad a0bc 0d28 d43d ff07 8cba
00000370: 266e 0ebd 63b4 2dbe c101 413e e32d 9c3d
00000380: fea9 cbbb e072 3bbd f07d 84bd 3771 eb3d
00000390: 3b6c ad3d 3552 00be f3a4 f53d d70f c9bd
000003a0: 3b27 2fbd 69d2 0580 a1cd 31bd 01c1 30be
000003b0: 8a0d 53be e9c6 54bb 6667 f0bd c3bf 8a3c
000003c0: 775a d93d 5a74 12be 2861 0580 433a 983d
000003d0: c909 f9bc 135d a1bd ff7c a7bd 4842 8cbc
000003e0: 8038 6b3e 5bd3 72be 18a7 d5bd baf2 6f3d
000003f0: d3b6 c7bd bb40 03bd 61fd 57be 8a00 d0bc

fc1.bias f4 [120]
1.3773908e-05 7.427869e-06 4.8273664e-06 7.448527e-06 5.3757362e-06 3.8863727e-06 2.1987551e-05 -2.7766891e-06
4.4140543e-07 1.1362923e-05 1.6997386e-06 1.8485625e-05 1.6127635e-06 1.8972338e-05 9.665006e-06 1.4363552e-05
-5.324498e-06 -1.5229167e-05 7.064487e-06 1.1673131e-05 1.5988899e-05 -1.4875469e-06 -2.9529367e-06 -2.2793074e-06
-4.0319155e-06 -4.8768914e-07 -3.5996214e-05 2.1950507e-05 5.0247486e-06 -5.0254753e-06 5.864391e-06 1.4000732e-06
-1.8939586e-06 -3.7138052e-06 2.895952e-05 -1.8501223e-05 3.098796e-05 -3.1883635e-06 -1.3541167e-05 6.712566e-06
4.0219174e-06 1.2078667e-08 4.0052582e-06 5.106889e-06 4.7498695e-05 -2.3828682e-07 -1.8035394e-06 1.5496973e-05
1.4449077e-05 3.9959177e-06 1.2863298e-05 -1.308228e-06 6.745318e-06 -3.5694168e-06 5.3746353e-06 8.323235e-06
4.6898563e-06 -1.14612085e-05 -4.6108295e-07 2.8800136e-05 3.3638273e-07 -1.998282e-06 8.32451e-06 8.115234e-06
-2.2538743e-05 -1.6613716e-06 1.40544635e-05 -5.78351e-06 1.6380094e-05 3.278135e-06 1.5367204e-05 2.5720867e-05
2.2913929e-07 9.017522e-06 5.3752765e-06 -1.5752257e-05 2.7866881e-05 -4.3284017e-06 5.401143e-06 1.1588869e-06
-3.5136352e-05 6.99451e-06 -1.6019883e-05 8.407781e-06 -1.2851818e-06 -8.140104e-06 -4.1615426e-06 -1.53332e-05
-8.223368e-06 -7.728357e-06 -5.536845e-06 -1.4233563e-06 -2.7080794e-05 6.9803114e-06 -3.6928177e-06 4.0389386e-06
-4.506076e-06 -2.6072998e-05 1.3209085e-05 -4.798858e-06 -6.0216626e-06 5.490279e-06 8.694827e-06 -7.0858578e-06
5.757955e-07 -4.6705327e-06 -1.8355223e-06 -4.976527e-06 -7.0297483e-07 8.0292875e-06 8.781571e-06 -1.6627229e-07
1.0488963e-05 1.9024714e-05 -8.485826e-06 1.8632795e-06 -7.743895e-06 -8.9697805e-06 -2.0574138e-05 -8.243509e-07
00000000: 7c16 6737 e93c f936 c3fa a136 5cee f936
00000010: 3961 b436 b067 8236 e871 b837 2857 3ab6
00000020: 4dfa ec34 62a3 3e37 9322 e435 9411 9b37
00000030: 2276 d835 c926 9f37 e226 2237 fcfa 7037
00000040: 17a9 b2b6 c680 7fb7 7b0b ed36 b7d7 4337
00000050: e61f 8637 b9a7 c7b5 112b 46b6 34f6 18b6
00000060: e449 87b6 bee9 02b5 a4fa 16b8 5b22 b837
00000070: 439a a836 81a0 a8b6 bcc6 c436 26ea bb35
00000080: ec33 feb5 b03a 79b6 18ee f237 1333 9bb7
00000090: 12f9 0138 abf7 55b6 df2e 63b7 813c e136
000000a0: 02f4 8636 8a82 4f32 e864 8636 d85b ab36
000000b0: 5639 4738 c8db 7fb4 2411 f2b5 7fff 8137
000000c0: 506a 7237 ac14 8636 72cf 5737 5f96 afb5
000000d0: d755 e236 1d8a 6fb6 c457 b436 06a4 0b37
000000e0: 8f5d 9d36 8449 40b7 c28a f7b4 d297 f137
000000f0: 1798 b434 391a 06b6 80a9 0b37 aa26 0837
00000100: 9511 bdb7 4bfc deb5 76cb 6b37 f90f c2b6
00000110: fc67 8937 eefd 5b36 d2e8 8037 24c3 d737
00000120: 5409 7634 f649 1737 465d b436 b723 84b7
00000130: acc3 e937 b03c 91b6 773b b536 0d8b 9b35
00000140: 5f5f 13b8 62b2 ea36 7062 86b7 250f 0d37
00000150: 837e acb5 7b91 08b7 61a3 8bb6 cc9f 80b7
00000160: 19f7 09b7 0aa9 01b7 23c9 b9b6 260a bfb5
00000170: 902b e3b7 6b38 ea36 20d2 77b6 3886 8736
00000180: e632 97b6 56b7 dab7 979c 5d37 e005 a1b6
00000190: b00d cab6 2339 b836 ffdf 1137 0ec3 edb6
000001a0: 5e90 1a35 92b7 9cb6 115c f6b5 0bfc a6b6
000001b0: 10b4 3cb5 87b5 0637 8f54 1337 9488 32b4
000001c0: c1f9 2f37 4397 9f37 585e 0eb7 cc15 fa35
000001d0: c7eb 01b7 ea7c 16b7 a096 acb7 f648 5db5

bn1.weight f4 [120]
0.9635829 0.9762088 0.86129916 0.9436552 1.0096905 0.9478164 0.97428703 0.9276803
0.8899041 0.92410296 1.0072299 0.9506151 0.9630866 0.94241947 1.0466115 0.93068105
0.9955853 0.96054953 0.957558 0.85707563 0.94171596 0.91084427 0.9622159 0.93027633
0.9041555 0.9576202 0.87395287 0.9572837 0.9511864 0.8683878 0.9647839 0.9022026
0.9275372 0.90294385 0.99639356 0.93542534 0.9574165 0.91581005 0.9106681 0.8989083
0.89311135 0.924038 0.96809655 0.84707445 1.0190476 0.93369883 0.8647357 0.9218401
0.94311965 0.9268484 0.9695546 0.9110056 0.8483241 0.8751582 0.88766724 1.0031642
0.88214886 0.9315593 1.0621184 0.9321926 0.9400726 0.9307318 0.928108 0.9511936
0.9174631 0.9440451 0.9916763 1.0126544 0.9374706 0.99939686 0.9256908 0.89819205
0.87658775 0.853302 0.93804044 0.97806907 0.87886405 0.9629064 0.9275763 0.9078925
0.99289566 0.96982193 0.92810756 1.0685233 0.9544321 0.9019947 0.9564021 0.94472295
0.8468452 1.00174 0.97535294 0.88459146 0.8910359 0.9324437 1.0030612 0.86701953
0.9745588 0.9803406 0.89687276 0.9863364 0.84794784 0.9228662 0.9222813 1.0027184
0.9208241 0.9643582 0.90593314 0.9071995 0.8976733 0.96375006 0.9436537 0.89815295
0.9183769 0.9710583 0.96380836 0.9231166 0.90940404 0.9220818 1.0269288 0.9527956
00000000: 5ead 763f d2e8 793f 1a7e 5c3f 6393 713f
00000010: 8a3d 813f 18a4 723f e06a 793f 757c 6d3f
00000020: c1d0 633f 0392 6c3f e9ec 803f 835b 733f
00000030: d88c 763f 6742 713f 5ef7 853f 1d41 6e3f
00000040: aede 7e3f 93e6 753f 8522 753f 4f69 5b3f
00000050: 4c14 713f 172d 693f c853 763f 9726 6e3f
00000060: bc76 673f 9926 753f 60bb 5f3f 8b10 753f
00000070: f480 733f aa4e 5e3f 14fc 763f c0f6 663f
00000080: 1473 6d3f 5427 673f a613 7f3f 0978 6f3f
00000090: 3f19 753f 8772 6a3f 8b21 693f db1e 663f
000000a0: f2a2 643f c18d 6c3f 2dd5 773f dfd9 583f
000000b0: 2770 823f e306 6f3f 525f 5d3f b6fd 6b3f
000000c0: 4a70 713f f045 6d3f bb34 783f aa37 693f
000000d0: c52b 593f 5e0a 603f 293e 633f af67 803f
000000e0: 82d4 613f ac7a 6e3f 7ff3 873f 2da4 6e3f
000000f0: 99a8 703f 7044 6e3f 7c98 6d3f 6c81 733f
00000100: ddde 6a3f f1ac 713f 7fde 7d3f a99e 813f
00000110: 13fe 6f3f 79d8 7f3f 13fa 6c3f eaef 653f
00000120: 0e68 603f 0072 5a3f 6b23 703f bc62 7a3f
00000130: 3cfd 603f 0981 763f a475 6d3f a56b 683f
00000140: 692e 7e3f 4046 783f 7598 6d3f 5fc5 883f
00000150: a955 743f 20e9 663f c5d6 743f 5dd9 713f
00000160: d9ca 583f 0439 803f bbb0 793f 9674 623f
00000170: ee1a 643f a1b4 6e3f 4f64 803f fef4 5d3f
00000180: af7c 793f 9af7 7a3f 7499 653f 8b80 7c3f
00000190: 1c13 593f f640 6c3f a11a 6c3f 1459 803f
000001a0: 21bb 6b3f 2ee0 763f 3ceb 673f 3a3e 683f
000001b0: ebcd 653f 53b8 763f 4a93 713f 5aed 653f
000001c0: c01a 6b3f 4797 783f 25bc 763f 5f51 6c3f
000001d0: b4ce 683f 8e0d 6c3f 6772 833f 6aea 733f

bn1.bias f4 [120]
-0.17781763 -0.09061038 -0.056516986 -0.05405535 -0.08084717 0.043087028 -0.08371461 -0.06399003
0.030875811 -0.08040061 0.09273881 -0.22475092 -0.0770176 -0.2553701 -0.066993214 -0.15678102
-0.16092837 0.0022878577 -0.060064558 -0.18940075 -0.09754242 -0.10196109 -0.044542782 0.033038024
0.014691881 -0.112916924 -0.1928947 -0.009919274 -0.06842887 -0.011065313 -0.1253371 -0.012481262
-0.26792905 0.09283005 -0.0020215483 -0.18502517 -0.21635258 -0.07781299 -0.19226225 -0.17311357
-0.18370269 -0.0915762 -0.067573085 -0.16213022 0.044247985 -0.12968056 -0.22147568 -0.119447045
0.00437814 -0.15821363 -0.06272011 -0.06664515 -0.2131325 -0.19386117 0.010290259 -0.07366258
-0.017354064 -0.14883211 -0.1884623 -0.23413174 -0.0757275 -0.16108732 -0.0645666 -0.11293176
-0.13317965 -0.04100173 -0.14093596 -0.20444839 -0.08429107 -0.18599899 -0.12729761 -0.18892714
-0.20794748 -0.30302125 -0.056215458 -0.034489196 -0.31463256 -0.16750103 -0.10170693 -0.0030289362
-0.013625752 -0.026131025 -0.2656229 -0.07751728 -0.03347248 -0.04836963 -0.04234621 -0.16545714
-0.124617286 -0.028994977 -0.12835984 -0.18583743 -0.14962374 -0.04698668 -0.0014922608 -0.21707232
-0.10569806 -0.1491598 -0.055549365 -0.26805243 -0.08530671 0.049507763 -0.09877729 -0.13724622
-0.28560397 -0.14448817 0.035196677 -0.13187677 -0.119279616 -0.07759748 -0.23652971 0.00414907
0.05617514 -0.07310018 -0.043924917 -0.13082364 -0.2312907 -0.011831041 -0.054940082 -0.08707492
00000000: d315 36be ef91 b9bd 5b7e 67bd 2569 5dbd
00000010: 3393 a5bd 067c 303d 9172 abbd 340d 83bd
00000020: 45ef fc3c 13a9 a4bd d8ed bd3d 1b25 66be
00000030: 67bb 9dbd dfbf 82be bd33 89bd 348b 20be
00000040: 68ca 24be e2ef 153b 4106 76bd 45f2 41be
00000050: 52c4 c7bd fad0 d0bd 7e72 36bd e152 073d
00000060: 37b6 703c fd40 e7bd 3086 45be 7384 22bc
00000070: 6f24 8cbd 494b 35bc 5e58 00be 357e 4cbc
00000080: ff2d 89be ae1d be3d f47b 04bb 3d77 3dbe
00000090: 888b 5dbe 6b5c 9fbd 65e0 44be af44 31be
000000a0: 8f1c 3cbe 4e8c bbbd c263 8abd 7705 26be
000000b0: 603d 353d fbca 04be 85ca 62be a7a0 f4bd
000000c0: 8076 8f3b c102 22be 6773 80bd 417d 88bd
000000d0: 683f 5abe 8b83 46be 7998 283c 68dc 96bd
000000e0: 1c2a 8ebc 7267 18be 43fc 40be 3bc0 6fbe
000000f0: 0517 9bbd 13f4 24be 7e3b 84bd c448 e7bd
00000100: 3f60 08be 6ef1 27bd 8451 10be eb5a 51be
00000110: cca0 acbd 8576 3ebe 4e5a 02be 1e76 41be
00000120: 2ff0 54be 9a25 9bbe 2e42 66bd 8b44 0dbd
00000130: 8517 a1be 6485 2bbe b94b d0bd 1e81 46bb
00000140: 8c3e 5fbc bb10 d6bc baff 87be 61c1 9ebd
00000150: 701a 09bd 3c1f 46bd 3873 2dbd 996d 29be
00000160: 5937 ffbd e086 edbc c370 03be 2b4c 3ebe
00000170: f736 19be 1b75 40bd f797 c3ba 3548 5ebe
00000180: 3978 d8bd 59bd 18be bb87 63bd 2b3e 89be
00000190: 49b5 aebd a7c8 4a3d bf4b cabd 468a 0cbe
000001a0: af3a 92be b5f4 13be 642a 103d b40a 07be
000001b0: df48 f4bd 6deb 9ebd d834 72be ecf4 873b
000001c0: e717 663d 8cb5 95bd 9dea 33bd a2f6 05be
000001d0: 78d7 6cbe fcd6 41bc da08 61bd 5654 b2bd

bn1.running_mean f4 [120]
0.027205683 -0.18569899 -0.10194509 0.120792866 -0.075099945 -0.05269904 0.15325896 0.060224734
-0.03186549 0.000943944 0.037144937 0.07240475 0.06714021 -0.14274353 -0.099236295 0.065287724
0.022591537 -0.10126662 0.15487315 -0.10936422 0.22178091 -0.08176801 0.13464338 0.13266851
0.10141198 0.20530064 -0.091236636 -0.06032816 0.13053171 0.01609271 -0.16544856 0.09765703
-0.04120248 -0.16396911 0.028986046 0.12629938 -0.0030431256 -0.015698878 -0.16974142 0.034351695
0.034751855 0.09106458 -0.0037916617 0.033452146 0.040962853 -0.021353543 -0.12386716 0.00031770457
0.043765664 0.107498825 -0.098125786 -0.038124986 0.04538561 -0.056435775 0.047779903 -0.13361418
-0.095996745 0.045367606 0.15858886 -0.04052553 0.052272353 -0.07346097 0.1526493 0.013355194
0.14176907 0.213442 -0.02977443 -0.115659714 0.10982668 0.07873089 0.07509307 -0.1380039
0.056101896 -0.06671056 0.17707908 0.007336909 -0.19573005 0.029865101 0.06425585 0.13303015
0.09813391 0.21309131 0.15180127 -0.07995825 0.06088454 0.061410286 0.08548104 -0.10234136
0.045410126 0.09812494 -0.015950603 -0.11526317 -0.031101823 0.15007733 0.067277566 -0.20217708
0.07576875 -0.081823796 -0.1380708 0.0102517465 -0.16827095 0.07513383 0.0802912 -0.041741308
-0.11338809 0.03565239 0.04616242 -0.068142176 -0.23029219 -0.10301429 0.034723468 0.18759081
0.1800556 0.0269259 -0.10267497 0.081045434 -0.22717173 0.18998882 -0.09375409 -0.07654488
00000000: 74de de3c e027 3ebe 96c8 d0bd 4062 f73d
00000010: 00ce 99bd f3da 57bd ebef 1c3e 36ae 763d
00000020: 6385 02bd 0273 773a 4a25 183d f148 943d
00000030: ce80 893d 5c2b 12be 663c cbbd 92b5 853d
00000040: e311 b93c e064 cfbd 1197 1e3e 59fa dfbd
00000050: 891a 633e fd75 a7bd f4df 093e 41da 073e
00000060: 16b1 cf3d 553a 523e 46da babd a91a 77bd
00000070: 1baa 053e dcd4 833c 596b 29be 6900 c83d
00000080: efc3 28bd 85e7 27be 2574 ed3c a054 013e
00000090: 2d6f 47bb ef9a 80bc b2d0 2dbe 5db4 0c3d
000000a0: f657 0e3d 1180 ba3d 877d 78bb 1e05 093d
000000b0: aac8 273d a0ed aebc 11ae fdbd 9691 a639
000000c0: a043 333d 5828 dc3d 2cf6 c8bd f228 1cbd
000000d0: 43e6 393d 3329 67bd dcb4 433d 28d2 08be
000000e0: f199 c4bd 62d3 393d 1e65 223e 19fe 25bd
000000f0: 891b 563d b472 96bd 1950 1c3e becf 5a3c
00000100: e92b 113e 8a90 5a3e 81e9 f3bc 00df ecbd
00000110: cfec e03d a93d a13d 65ca 993d e550 0dbe
00000120: 1acb 653d 8c9f 88bd 3854 353e 746a f03b
00000130: 756d 48be a8a7 f43c 9298 833d 0e39 083e
00000140: 6efa c83d 9c34 5a3e cb71 1b3e 27c1 a3bd
00000150: 1162 793d 5a89 7b3d af10 af3d 5998 d1bd
00000160: f8ff 393d bbf5 c83d d7aa 82bc 190f ecbd
00000170: 40c9 febc dfad 193e d2c8 893d 8207 4fbe
00000180: a52c 9b3d 3c93 a7bd 6f62 0dbe f1f6 273c
00000190: 384f 2cbe c4df 993d b66f a43d eff8 2abd
000001a0: 0438 e8bd 3e08 123d ce14 3d3d 208e 8bbd
000001b0: b7d1 6bbe 28f9 d2bd 323a 0e3d ce17 403e
000001c0: 7f60 383e b493 dc3c 4147 d2bd 26fb a53d
000001d0: b59f 68be 6e8c 423e 2502 c0bd 90c3 9cbd

bn1.running_var f4 [120]
0.16405532 0.1989427 0.14302288 0.14604817 0.08233286 0.15387587 0.11487641 0.1477437
0.09599005 0.1650564 0.18664044 0.076298535 0.115040295 0.21663567 0.03975591 0.14814025
0.24438052 0.17741959 0.1645491 0.1850508 0.111347586 0.21569826 0.108860806 0.096315436
0.15038942 0.14967726 0.12726627 0.19658116 0.1626625 0.15911178 0.10932544 0.13372236
0.12475344 0.06607725 0.17046455 0.0887489 0.163104 0.09320398 0.15806565 0.17976813
0.151478 0.13694581 0.16386302 0.23921809 0.14385189 0.17772011 0.11108143 0.10819419
0.19951528 0.16904552 0.09740153 0.23190092 0.19046569 0.22185434 0.13737932 0.17108649
0.18303601 0.15445852 0.19503689 0.15612265 0.13929218 0.16636407 0.17918785 0.16526763
0.16285828 0.15150823 0.15362449 0.15988852 0.20234022 0.24281403 0.2379475 0.16861385
0.18639089 0.12959065 0.059958998 0.12493677 0.09748388 0.12926582 0.16499123 0.13356157
0.18442717 0.13779427 0.07873261 0.16336931 0.14596201 0.19098552 0.15179642 0.16786994
0.1511873 0.13279295 0.19478607 0.14233518 0.17309947 0.18205228 0.117979415 0.20474803
0.18851732 0.09027019 0.19703138 0.20098433 0.12175628 0.13870567 0.1981131 0.089078054
0.12487623 0.10422874 0.13650173 0.10558107 0.23394229 0.14612152 0.12825544 0.16731705
0.1628363 0.18490957 0.13295262 0.1698308 0.2764813 0.10151645 0.10805066 0.077931985
00000000: 1efe 273e a3b7 4b3e 9774 123e a78d 153e
00000010: 219e a83d a391 1d3e 5344 eb3d 204a 173e
00000020: 6e96 c43d 8b04 293e ac1e 3f3e 6842 9c3d
00000030: 3f9a eb3d bed5 5d3e 18d7 223d 14b2 173e
00000040: e33e 7a3e 7bad 353e 8f7f 283e f57d 3d3e
00000050: 340a e43d 01e0 5c3e 6af2 de3d 0741 c53d
00000060: afff 193e ff44 193e 1752 023e 924c 493e
00000070: 0091 263e 33ee 223e 04e6 df3d 84ee 083e
00000080: bb7e ff3d 8253 873d 428e 2e3e fcc1 b53d
00000090: bc04 273e bae1 be3d f6db 213e 2315 383e
000000a0: 0d1d 1b3e 863b 0c3e b5cb 273e 96f5 743e
000000b0: e94d 133e 43fc 353e a97e e33d ea94 dd3d
000000c0: bc4d 4c3e 451a 2d3e 747a c73d 6f77 6d3e
000000d0: 7009 433e c92d 633e 2aad 0c3e 4c31 2f3e
000000e0: cb6d 3b3e 602a 1e3e c0b7 473e 9ede 1f3e
000000f0: 9ca2 0e3e 585b 2a3e 057d 373e eb3b 293e
00000100: 52c4 263e f924 1b3e bd4f 1d3e d1b9 233e
00000110: 4632 4f3e 3ea4 783e 82a8 733e 1ca9 2c3e
00000120: 41dd 3e3e 69b3 043e 9197 753d d9de ff3d
00000130: a1a5 c73d 425e 043e 76f3 283e 5dc4 083e
00000140: 7ada 3c3e f119 0d3e 903e a13d 494a 273e
00000150: 1177 153e b591 433e 8570 1b3e 19e6 2b3e
00000160: d8d0 1a3e e0fa 073e 0076 473e 50c0 113e
00000170: fd40 313e ea6b 3a3e 319f f13d 78a9 513e
00000180: af0a 413e 94df b83d 98c2 493e d6ce 4d3e
00000190: 5b5b f93d dc08 0e3e 29de 4a3e 8e6e b63d
000001a0: 1cbf ff3d e175 d53d 1cc7 0b3e e33a d83d
000001b0: 918e 6f3e e1a0 153e 6555 033e 2955 2b3e
000001c0: 8fbe 263e ef58 3d3e bb24 083e 20e8 2d3e
000001d0: f58e 8d3e dbe7 cf3d aa49 dd3d ce9a 9f3d

fc2.weight f4 [60, 120]
-0.07015247 -0.009331441 -0.051819153 0.11629536 0.036892436 -0.06812556 -0.11791079 0.04845577
0.11563465 0.07962646 0.06252164 0.022010077 -0.040497463 -0.10357155 -0.04722749 0.017479025
0.11061113 -0.03075556 -0.023650862 -0.15875448 -0.047237594 -0.03272998 0.086552344 -0.04755056
0.01999484 0.05961906 -0.047147445 0.021503545 0.13297936 -0.019514054 -0.0018708454 -0.05027009
-0.024733115 0.0027450537 0.027765842 -0.08822684 -0.114542656 -0.0022748194 -0.13318448 -0.102123626
-0.096796125 0.115209706 0.072628856 -0.071476065 -0.0677492 -0.1216443 -0.014450187 0.06843647
0.0008409698 -0.0050532185 0.115545675 -0.028804861 -0.08586953 0.018011536 0.08151829 0.0689441
-0.06740475 -0.066362105 0.037280016 -0.070116416 8.952044e-05 -0.07480497 0.010780645 0.061704658
-0.024930464 0.09077058 -0.02461837 -0.049609613 0.06850232 0.08029534 -0.063429125 -0.027230723
-0.19244999 -0.122499704 0.010456766 0.03249917 -0.059438992 -0.008475132 0.086370304 -0.021078264
0.046432793 0.05073523 -0.091306254 0.117011905 0.032559786 -0.028853225 0.036778882 0.0066712094
-0.052509133 0.04234018 -0.096067265 0.05303764 -0.007954168 0.036042083 0.014642446 -0.09826106
0.060146727 -0.0004812247 0.025439734 -0.08777877 0.059532125 -0.064940386 0.08728214 0.23025061
-0.03821472 0.04995385 0.03535467 -0.061051525 -0.037850283 -0.08745971 -0.02361459 -0.040778525
0.035306677 0.07512846 -0.1024434 -0.024191288 -0.14231852 0.07637434 0.035461586 -0.02601799
0.03600906 0.12014554 -0.077487595 -0.047129184 -0.14108242 -0.01669371 -0.05139948 0.05795118
0.04152761 0.02918117 0.11954473 -0.09267568 0.03947601 0.025093103 -0.07863598 -0.12194789
0.003573334 0.025870847 0.06658355 -0.0015955544 0.027688451 0.0068493434 0.11784064 0.011931376
-0.019713817 0.029428616 -0.053800587 -0.03387878 0.019395 -0.07173139 -0.15287814 -0.018420216
0.005690848 -0.039876442 0.0051123225 -0.056947093 -0.023858707 -0.07085094 0.053874522 0.040664166
-0.008149175 0.05702027 0.01946005 -0.16246529 0.0123857055 -0.10432785 -0.19491945 -0.03110307
0.038490467 0.10401769 -0.01279824 0.11940373 0.04439284 -0.060096838 -0.054351903 0.048959658
0.0082529215 0.0023798803 0.11680204 0.036927395 0.0446375 0.06619137 0.07380792 0.003037714
0.04018594 -0.011471775 -0.08157918 -0.104603715 0.116245046 0.09593112 -0.012746756 -0.20516327
-0.03702232 -0.038928896 -0.035758592 -0.05830338 -0.030462818 0.02497085 0.18946075 -0.014395409
0.06727461 0.08300831 0.05379719 0.033050094 -0.12235941 0.058141846 0.05815919 0.025132349
-0.046360742 -0.0429619 0.048219714 -0.18970916 -0.07428043 -0.071430914 -0.010974609 -0.06996476
0.07398672 0.045838643 0.059949186 -0.01613628 0.022774212 -0.026140373 0.032530256 -0.024766454
0.0076870853 0.02124481 0.07893756 -0.01770288 -0.009165201 0.0074158404 0.041018292 -0.021409951
0.08758604 0.055107076 0.0615619 -0.052121274 0.029723408 0.055666164 -0.13440701 -0.01817402
0.05703715 -0.040487822 0.020096676 0.039840948 0.11436059 0.089578204 -0.093708456 0.11283066
-0.01206345 -0.058952775 -0.04948703 -0.0864131 0.05185218 -0.0013930063 0.06827384 -0.2786818
00000000: 19ac 8fbd e6e2 18bc 5240 54bd 432c ee3d
00000010: 861c 173d 6a85 8bbd 367b f1bd 8f79 463d
00000020: dcd1 ec3d 3313 a33d 580b 803d 7a4e b43c
00000030: abe0 25bd 521d d4bd 9d71 41bd 2c30 8f3c
00000040: 1788 e23d 16f3 fbbc 74bf c1bc 8990 22be
00000050: 357c 41bd df0f 06bd 5b42 b13d 60c4 42bd
00000060: 38cc a33c 1e33 743d ae1d 41bd 3428 b03c
00000070: be2b 083e f0db 9fbc 2837 f5ba 03e8 4dbd
00000080: 1a9d cabc 5ce6 333b 3175 e33c 46b0 b4bd
00000090: 5795 eabd 2315 15bb 8361 08be 3126 d1bd
000000a0: 0c3d c6bd 11f3 eb3d 70be 943d 0b62 92bd
000000b0: 18c0 8abd a620 f9bd 7ac0 6cbc 6c28 8c3d
000000c0: 8774 5c3a 7895 a5bb 36a3 ec3d 2cf8 ebbc
000000d0: 5ddc afbd ee8c 933c 10f3 a63d 9032 8d3d
000000e0: 800b 8abd dbe8 87bd eeb2 183d 3299 8fbd
000000f0: ecbc bb38 5933 99bd 4da1 303c 06be 7c3d
00000100: f93a ccbc ede5 b93d 77ac c9bc 7333 4bbd
00000110: f24a 8c3d e271 a43d 21e7 81bd f712 dfbc
00000120: 9c11 45be 20e1 fabd db52 2b3c da1d 053d
00000130: 4d76 73bd 48db 0abc eae2 b03d 53ac acbc
00000140: 5030 3e3d bfcf 4f3d c6fe babd f0a3 ef3d
00000150: 695d 053d 995d ecbc 74a5 163d 299a da3b
00000160: d113 57bd e66c 2d3d eabe c4bd ff3d 593d
00000170: 3352 02bc dda0 133d dfe6 6f3c 183d c9bd
00000180: 6a5c 763d e34c fcb9 fd66 d03c 5bc5 b3bd
00000190: f5d7 733d 77ff 84bd fbc0 b23d d1c6 6b3e
000001a0: 0a87 1cbd 699c 4c3d 0fd0 103d 2a11 7abd
000001b0: e608 1bbd 141e b3bd 6273 c1bc 6207 27bd
000001c0: bc9d 103d f3dc 993d d8cd d1bd cf2c c6bc
000001d0: f2bb 11be 266a 9c3d 2b40 113d ae23 d5bc
000001e0: 3c7e 133d dd0e f63d d1b1 9ebd 880a 41bd
000001f0: e977 10be 3fc1 88bc 4388 52bd 375e 6d3d
00000200: db18 2a3d 590d ef3c ded3 f43d bfcc bdbd
00000210: 99b1 213d 0d90 cd3c e70b a1bd d1bf f9bd
00000220: 992e 6a3b 19ef d33c f55c 883d ec21 d1ba
00000230: e4d2 e23c 7570 e03b 6f56 f13d d17b 433c
00000240: df7e a1bc 4814 f13c 015e 5cbd 7ac4 0abd
00000250: 43e2 9e3c e8e7 92bd 168c 1cbe fee5 96bc
00000260: 4b7a ba3b 7b55 23bd 4585 a73b 5b41 69bd
00000270: 5673 c3bc 4c1a 91bd 88ab 5c3d 788f 263d
00000280: 1e84 05bc 168e 693d af6a 9f3c 4d5d 26be
00000290: 6aed 4a3c d7a9 d5bd f798 47be decb febc
000002a0: 2ea8 1d3d 3a07 d53d b6af 51bc f189 f43d
000002b0: 44d5 353d 1a28 76bd 1aa0 5ebd ec89 483d
000002c0: 4337 073c c4f7 1b3b e835 ef3d 2e41 173d
000002d0: d0d5 363d 578f 873d 9b28 973d 6214 473b
000002e0: 039a 243d 1df4 3bbc fc12 a7bd 793a d6bd
000002f0: e211 ee3d 8977 c43d c5d7 50bc 5216 52be
00000300: b7a4 17bd e873 1fbd 9a77 12bd 86cf 6ebd
00000310: 298d f9bc ab8f cc3c 0002 423e b9da 6bbc
00000320: 45c7 893d 4300 aa3d 715a 5c3d 895f 073d
00000330: 9297 fabd 2526 6e3d 5538 6e3d 5be2 cd3c
00000340: c3e4 3dbd d1f8 2fbd 0982 453d 1e43 42be
00000350: 5720 98bd 5f4a 92bd d9ce 33bc af49 8fbd
00000360: 5986 973d 4dc1 3b3d 478d 753d 3b30 84bc
00000370: fc90 ba3c 5624 d6bc 723e 053d 05e3 cabc
00000380: f2e3 fb3b 9909 ae3c 04aa a13d a105 91bc
00000390: a429 16bc 9400 f33b cc02 283d ec63 afbc
000003a0: 4f60 b33d f5b7 613d 5528 7c3d 1e7d 55bd
000003b0: 817e f33c 3402 643d fea1 09be afe1 94bc
000003c0: c99f 693d 8fd6 25bd c9a1 a43c 4330 233d
000003d0: e335 ea3d c774 b73d 38ea bfbd c313 e73d
000003e0: c7a5 45bc 7778 71bd e9b2 4abd 5af9 b0bd
000003f0: f462 543d 8995 b6ba 28d3 8b3d 62af 8ebe

fc2.bias f4 [60]
1.4506544e-05 6.0924226e-06 1.600192e-06 -6.3634725e-06 1.102719e-05 1.32247205e-05 -5.664263e-06 -1.0617199e-06
7.487099e-06 -1.5527442e-06 -6.03437e-06 2.735295e-06 4.604723e-06 5.86143e-06 -3.025338e-05 -3.7898846e-07
-4.062664e-07 7.783652e-06 1.9534396e-06 7.730515e-06 -1.0219646e-05 -4.9839314e-06 -7.4925174e-07 -1.3493044e-05
-6.1954147e-06 2.2575188e-05 6.0661646e-06 -2.2551529e-05 1.3698185e-05 -1.0099386e-05 -1.600926e-05 -8.53008e-06
-6.272328e-06 1.1067957e-05 8.588783e-06 6.966158e-06 9.222012e-06 -3.7808982e-06 -2.0336588e-06 -6.7208803e-06
3.0455763e-05 1.0225981e-05 1.4820381e-06 2.7241124e-06 6.2552795e-07 -4.22472e-06 6.208828e-06 3.9519996e-06
-2.4664835e-06 4.503498e-07 1.0731783e-05 -6.0660836e-06 6.4825454e-06 -3.2834888e-07 -1.3363887e-05 4.3630303e-06
-2.84326e-06 5.0317913e-06 1.8932284e-06 -1.2918369e-05
00000000: 2261 7337 836d cc36 2ec6 d635 d085 d5b6
00000010: 6c01 3937 bedf 5d37 a60f beb6 6b80 8eb5
00000020: b139 fb36 e267 d0b5 d87a cab6 0390 3736
00000030: 4582 9a36 4dad c436 a4c8 fdb7 c777 cbb4
00000040: d41c dab4 8896 0237 d617 0336 4fb2 0137
00000050: 0c75 2bb7 a53b a7b6 3020 49b5 2f60 62b7
00000060: 35e2 cfb6 d95f bd37 f58b cb36 0a2d bdb7
00000070: 42d1 6537 8870 29b7 a04b 86b7 6a1c 0fb7
00000080: e376 d2b6 83b0 3937 8b18 1037 d7be e936
00000090: 3db8 1a37 56bb 7db6 fe79 08b6 ec83 e1b6
000000a0: 417b ff37 4190 2b37 71ea c635 e5cf 3636
000000b0: f4e9 2735 12c2 8db6 6d55 d036 6b9b 8436
000000c0: dd85 25b6 9bc7 f134 a80c 3437 438b cbb6
000000d0: a484 d936 ed47 b0b4 7535 60b7 2566 9236
000000e0: d6ce 3eb6 c2d6 a836 d51a fe35 f9bb 58b7

bn2.weight f4 [60]
0.8930872 0.86699486 0.91208905 0.8785815 0.7876214 0.91286236 0.9586143 0.8388218
0.9377049 0.856881 0.87388587 0.918809 0.98632145 0.8572099 0.8277808 0.866171
0.8409955 0.8910255 0.9606816 0.86140233 0.9046629 0.90533644 0.8926488 0.9892638
0.8218048 0.97469723 0.8663211 0.9633586 0.93440604 1.0224552 0.8405538 0.9638191
0.7964561 0.9052405 0.9031369 0.95113707 0.84356385 0.9305621 0.95303327 0.9171847
0.9331231 0.96306044 0.89560044 0.912006 0.90016264 0.85112315 0.87468684 0.8903487
0.9643009 0.8592599 0.8963631 0.9506891 0.90706474 0.89121825 0.9129762 0.9176253
0.8993931 0.8710232 0.9031272 0.908498
00000000: 5da1 643f 60f3 5d3f ab7e 693f b8ea 603f
00000010: 8ea1 493f 59b1 693f bf67 753f 07bd 563f
00000020: 6e0d 703f 8e5c 5b3f fcb6 5f3f 1137 6b3f
00000030: 907f 7c3f 1c72 5b3f 71e9 533f 62bd 5d3f
00000040: 7b4b 573f 3f1a 643f 3bef 753f dd84 5c3f
00000050: fd97 673f 21c4 673f a284 643f 6440 7d3f
00000060: cd61 523f c285 793f 38c7 5d3f ab9e 763f
00000070: 3c35 6f3f d0df 823f 892e 573f d9bc 763f
00000080: 8ce4 4b3f d7bd 673f fb33 673f b87d 733f
00000090: cdf3 573f 5139 6e3f fdf9 733f 9ecc 6a3f
000000a0: 28e1 6e3f 218b 763f 1246 653f 3a79 693f
000000b0: 0f71 663f 35e3 593f 7aeb 5f3f e4ed 633f
000000c0: 6cdc 763f 75f8 5b3f 0d78 653f 5c60 733f
000000d0: 6535 683f e126 643f cfb8 693f 7ee9 6a3f
000000e0: a03e 663f 60fb 5e3f 5833 673f 5393 683f

bn2.bias f4 [60]
0.15110831 0.1557348 0.15679517 0.123344816 0.019228686 0.02132049 0.0604485 -0.13198681
-0.10107972 -0.05900754 0.006234614 -0.073468566 0.07330342 0.2053803 -0.04681597 0.0025858346
-0.11056173 0.10829321 0.10672095 -0.019370742 -0.14803879 0.077732265 -0.12152504 -0.12754256
-0.043773737 0.14744404 -0.023510467 -0.001880196 -0.02931086 0.15225144 -0.10692217 0.067975044
-0.079754844 -0.021205286 -0.100821614 0.20580997 0.112040564 0.052276082 0.06822809 0.05144941
0.0540941 0.013161428 0.06127913 0.30882737 -0.016768325 -0.121826105 -0.106945746 -0.07269839
0.094131045 -0.19013833 -0.03372677 0.06271832 0.25150773 0.11179627 0.0059736962 0.14400041
-0.06443274 -0.020091679 -0.086189 -0.107225835
00000000: 23bc 1a3e f278 1f3e ea8e 203e 359c fc3d
00000010: 7a85 9d3c 4fa8 ae3c d998 773d 8d27 07be
00000020: e202 cfbd e4b1 71bd bc4b cc3b b076 96bd
00000030: 1a20 963d 374f 523e 1ac2 3fbd 1b77 293b
00000040: 306e e2bd d5c8 dd3d 8390 da3d 64af 9ebc
00000050: 7b97 17be 1832 9f3d 1fe2 f8bd 849a 02be
00000060: 174c 33bd 92fb 163e 0699 c0bc e970 f6ba
00000070: 541d f0bc cde7 1b3e 03fa dabd 8036 8b3d
00000080: 8256 a3bd b5b6 adbc 907b cebd d9bf 523e
00000090: 8675 e53d 721f 563d 2bbb 8b3d 9ebc 523d
000000a0: c691 5d3d 08a3 573c d3ff 7a3d 9f1e 9e3e
000000b0: ba5d 89bc f77f f9bd 5f06 dbbd e5e2 94bd
000000c0: c7c7 c03d 9fb3 42be 1525 0abd 7672 803d
000000d0: 9fc5 803e 71f5 e43d ffbe c33b d874 133e
000000e0: 50f5 83bd 4e97 a4bc dc83 b0bd 3899 dbbd

bn2.running_mean f4 [60]
0.09241752 0.067114614 -0.018289443 -0.051244322 0.055268437 0.0031345244 0.00861475 -0.12828197
-0.16981177 0.017075615 0.14059122 -0.14873357 -0.28060073 0.13341671 -0.18842535 0.06367759
-0.02278459 0.035513833 0.18135473 -0.1847775 0.14534321 -0.23880291 0.06760567 -0.34959885
-0.24046709 0.033805687 -0.25826135 -0.34800446 -0.044562034 -0.13669322 -0.059063785 0.10635463
-0.1621685 -0.0031959787 -0.030897189 -0.3799212 -0.17743376 0.16604997 -0.31691518 0.06616356
-0.08610539 -0.17979535 -0.085140936 -0.051863845 -0.15750702 0.0009815762 -0.05724093 -0.10415499
-0.23611268 -0.012219893 0.11729822 -0.082404174 0.15502769 -0.006545255 -0.16197217 0.12146809
0.085887276 0.0062311552 0.004674379 -0.036554683
00000000: 6645 bd3d 6373 893d bed3 95bc 91e5 51bd
00000010: 2861 623d 986c 4d3b e124 0d3c 595c 03be
00000020: 23e3 2dbe 29e2 8b3c 25f7 0f3e 9d4d 18be
00000030: e6aa 8fbe 649e 083e 93f2 40be 6569 823d
00000040: c0a6 babc f476 113d 0eb5 393e 5036 3dbe
00000050: dad4 143e c088 74be d774 8a3d 9ffe b2be
00000060: 013d 76be d577 0a3d d53a 84be a42d b2be
00000070: ae86 36bd 4ff9 0bbe deec 71bd 75d0 d93d
00000080: 800f 26be a073 51bb 1a1c fdbc 0885 c2be
00000090: 32b1 35be 0109 2a3e b542 a2be c380 873d
000000a0: 0658 b0bd 461c 38be 5f5e aebd 2f6f 54bd
000000b0: 8549 21be 3ba8 803a 7775 6abd 364f d5bd
000000c0: 86c7 71be f235 48bc 0d3a f03d 85c3 a8bd
000000d0: 94bf 1e3e 9479 d6bb 08dc 25be 43c4 f83d
000000e0: abe5 af3d b82e cc3b 882b 993b 5dba 15bd

bn2.running_var f4 [60]
1.399482 1.3931109 1.3557649 1.5846949 1.499964 1.2277694 1.3618716 1.4976308
1.204197 1.4946834 1.282824 0.64163893 1.5196754 1.4795418 1.4272171 1.4953535
1.0266156 1.2710284 1.4364839 1.376283 1.1091803 1.6726799 0.96996003 1.1037935
1.0027841 1.150937 1.0587115 1.0580957 1.2844113 1.2591422 0.86392725 1.2675543
1.3057116 1.50261 1.4119638 1.2808635 1.2132484 1.6490529 0.84765863 1.6342099
1.2667328 0.9864205 1.6170512 1.1495589 1.2525578 1.5669507 1.2735332 1.1806018
1.485862 0.8488691 1.08927 1.6311299 1.437035 1.2276785 1.1012219 1.6089096
1.6122284 1.155223 1.312364 0.9727264
00000000: 3a22 b33f 7551 b23f b489 ad3f 48d7 ca3f
00000010: d2fe bf3f 8c27 9d3f cf51 ae3f 5eb2 bf3f
00000020: 2123 9a3f c951 bf3f 9433 a43f 7342 243f
00000030: b984 c23f a061 bd3f 0daf b63f be67 bf3f
00000040: 2468 833f 0fb1 a23f b4de b73f 0b2a b03f
00000050: 9ff9 8d3f 601a d63f 4d4f 783f 1b49 8d3f
00000060: 3b5b 803f e751 933f dc83 873f ae6f 873f
00000070: 9767 a43f 922b a13f 562a 5d3f 383f a23f
00000080: 8f21 a73f 8655 c03f 3bbb b43f 56f3 a33f
00000090: b94b 9b3f 2a14 d33f 2800 593f ca2d d13f
000000a0: 4d24 a23f 0e86 7c3f 89fb ce3f bf24 933f
000000b0: d053 a03f d791 c83f 2303 a33f f61d 973f
000000c0: ba30 be3f 7c4f 593f 336d 8b3f ddc8 d03f
000000d0: c3f0 b73f 9224 9d3f d7f4 8c3f c0f0 cd3f
000000e0: 805d ce3f 59de 933f 8bfb a73f 9904 793f

fc3.weight f4 [30, 60]
-0.110302486 -0.024895035 0.045234736 -0.043094486 -0.12595065 0.029504549 0.12813254 -0.012195253
-0.090606086 0.034765102 -0.037881903 -0.063808784 0.069660485 -0.035331164 -0.052575182 -0.036319416
0.10264295 0.016031336 0.03164609 0.02449585 -0.09927536 -0.07438152 -0.043902755 0.025069866
0.027327916 -0.28279516 0.023415534 -0.11644326 0.05216128 -0.36675242 0.15476114 -0.1509717
-0.04644164 0.06708671 -0.025170015 -0.17701048 -0.047819786 -0.09982574 -0.1507602 -0.06294386
-0.07779397 -0.24809901 -0.040091738 -0.1082037 -0.047775682 -0.081566155 -0.061373096 0.10123681
0.012388032 0.10191254 -0.05869066 -0.012990456 -0.03483413 0.06378143 0.043089215 -0.27710518
-0.010430401 -0.06375846 0.03932486 0.04328535 0.046287015 0.06403497 -0.07112617 0.042130772
-0.09364368 -0.02956189 0.015770528 0.021147741 0.08870027 0.14685781 0.047606573 0.119317986
0.025185756 0.053435452 -0.09975851 0.025732545 -0.16062999 -0.012930795 -0.0042630667 0.0046604103
0.008513846 -0.016976906 0.16910325 0.11485798 0.020841744 -0.23688856 0.06739725 -0.13646832
-0.048502304 -0.16217351 0.05659213 -0.032374956 -0.15621549 -0.105619214 0.011042792 -0.1802021
-0.11138923 0.07298887 0.032657966 0.079274386 -0.07995568 -0.3529553 0.04565744 0.09956963
-0.0038999065 -0.07965667 -0.07789799 0.010508338 0.09139173 -0.021576906 -0.06566581 0.0758641
-0.019791828 0.036486693 -0.071299456 -0.15863824 0.052096877 -0.0037100052 0.07737579 -0.017629338
-0.2274984 0.008138749 -0.0425738 -0.07039902 0.0562611 -0.2627052 -0.008831677 -0.025304824
0.050849665 -0.030898606 0.041100487 0.015828049 0.0707266 -0.13681138 -0.09740787 -0.13691317
0.016173257 0.04685899 0.027606336 0.032739356 -0.088399775 0.014019452 0.107089564 -0.15307577
0.108856685 0.09374607 0.040553626 0.04995969 -0.10047097 0.019990018 0.08544348 -0.029432187
-0.009264476 0.05664066 -0.24179524 0.14182197 -0.013014318 0.05397691 -0.102337725 -0.4168527
-0.00060963177 0.043379743 -0.061675046 -0.09935814 -0.05322762 -0.04611755 -0.15560676 0.052911907
0.10408459 0.071751915 -0.09286982 0.03778819 -0.17529003 -0.07916749 -0.089438915 0.03975411
-0.11875342 -0.0042556543 -0.043009523 -0.014124428 0.012060322 -0.01824336 -0.08811323 -0.041782666
-0.20934297 0.1017739 0.0020899654 -0.013166232 -0.116796315 -0.24947166 -0.12047272 0.0071129305
-0.0820234 -0.10655801 -0.10699943 0.04899761 0.002189564 -0.18771587 -0.103049554 -0.042319976
-0.120212086 0.02977014 -0.0037226565 -0.025210164 -0.009153526 -0.077646084 -0.06210202 0.0067139054
-0.20263268 0.050500926 -0.013261095 0.019087728 0.040873695 -0.050483152 -0.05988041 0.04611877
-0.045910217 -0.16772327 -0.023765018 -0.06273611 0.058882535 -0.019797476 0.03431433 0.009961165
-0.13776651 -0.03523856 -0.011941883 -0.0765329 -0.058437597 0.014965074 0.13832748 0.012119735
0.11696352 -0.16215716 -0.25542897 -0.11646217 -0.16578563 0.03584841 -0.006420142 0.06665258
-0.06782934 0.028617287 -0.11684001 0.08863362 -0.023344005 0.109159335 0.08195344 -0.038928505
0.11504485 -0.036659557 0.11073281 -0.0042206785 -0.035958376 0.06613632 -0.03155571 0.010858254
00000000: 45e6 e1bd acf0 cbbc 0f48 393d d883 30bd
00000010: 35f9 00be 86b3 f13c 2d35 033e 99ce 47bc
00000020: af8f b9bd da65 0e3d 0e2a 1bbd 2eae 82bd
00000030: 28aa 8e3d 69b7 10bd 1359 57bd abc3 14bd
00000040: 7836 d23d 2654 833c 559f 013d 85ab c83c
00000050: e150 cbbd 5755 98bd 60d3 33bd 525f cd3c
00000060: cbde df3c 87ca 90be efd1 bf3c ce79 eebd
00000070: 11a7 553d f9c6 bbbe b479 1e3e 5398 1abe
00000080: 9739 3ebd c264 893d 5931 cebc 3c42 35be
00000090: aede 43bd 7071 ccbd e260 1abe b6e8 80bd
000000a0: 7252 9fbd ab0d 7ebe 3c37 24bd e799 ddbd
000000b0: 6fb0 43bd 280c a7bd 5b62 7bbd 3f55 cf3d
000000c0: 2cf7 4a3c 86b7 d03d 9e65 70bd ecd5 54bc
000000d0: 3cae 0ebd d79f 823d 517e 303d bbe0 8dbe
000000e0: 46e4 2abc cc93 82bd 1b13 213d fb4b 313d
000000f0: 7497 3d3d c424 833d 99aa 91bd 5191 2c3d
00000100: 42c8 bfbd c72b f2bc 3231 813c 073e ad3c
00000110: 7da8 b53d e561 163e 1cff 423d fd5c f43d
00000120: 5c52 ce3c 22df 5a3d 314e ccbd 0fcd d23c
00000130: 307c 24be afdb 53bc 32b1 8bbb 5bb6 983b
00000140: a97d 0b3c 2713 8bbc 6729 2d3e a93a eb3d
00000150: 4ebc aa3c ea92 72be 9207 8a3d 5abe 0bbe
00000160: 5aaa 46bd d010 26be 26cd 673d 9a9b 04bd
00000170: f4f6 1fbe e34e d8bd d4ec 343c e686 38be
00000180: 0920 e4bd 307b 953d 5cc4 053d 9c5a a23d
00000190: cebf a3bd 8fb6 b4be 4c03 3b3d 2aeb cb3d
000001a0: 9395 7fbb 0923 a3bd fb88 9fbd 2a2b 2c3c
000001b0: 962b bb3d 0dc2 b0bc cc7b 86bd a35e 9b3d
000001c0: 7922 a2bc 1273 153d 7305 92bd 1072 22be
000001d0: 8963 553d 8f23 73bb 3377 9e3d 676b 90bc
000001e0: 57f5 68be 6358 053c dd61 2ebd 5d2d 90bd
000001f0: 0a72 663d 4c81 86be bdb2 10bc 104c cfbc
00000200: bd47 503d 131f fdbc fc58 283d d3a9 813c
00000210: 1cd9 903d 4818 0cbe c77d c7bd f732 0cbe
00000220: c77d 843c 36ef 3f3d af26 e23c b419 063d
00000230: f10a b5bd d8b1 653c c651 db3d e5bf 1cbe
00000240: 41f0 de3d f1fd bf3d 8f1b 263d 88a2 4c3d
00000250: b9c3 cdbd 1bc2 a33c fefc ae3d c51b f1bc
00000260: 07ca 17bc 0900 683d 2c99 77be c739 113e
00000270: 023a 55bc e416 5d3d 7196 d1bd b86d d5be
00000280: b2cf 1fba f5ae 313d f99e 7cbd 487c cbbd
00000290: 3405 5abd c2e5 3cbd 6157 1fbe 28ba 583d
000002a0: 4d2a d53d abf2 923d 8832 bebd cac7 1a3d
000002b0: 3b7f 33be 9122 a2bd c02b b7bd 35d5 223d
000002c0: fe34 f3bd 0473 8bbb c12a 30bd 256a 67bc
000002d0: a898 453c 1973 95bc b674 b4bd 4d24 2bbd
000002e0: 015e 56be d66e d03d cdf7 083b 2eb7 57bc
000002f0: e832 efbd 8075 7fbe 67ba f6bd 9613 e93b
00000300: e2fb a7bd 163b dabd 8422 dbbd b8b1 483d
00000310: ca7e 0f3b 9738 40be a50b d3bd b657 2dbd
00000320: c131 f6bd 82e0 f33c d0f7 73bb 8c85 cebc
00000330: acf8 15bc e904 9fbd b05e 7ebd 5200 dc3b
00000340: f17e 4fbe 0fda 4e3d 1045 59bc de5d 9c3c
00000350: 2d6b 273d 6cc7 4ebd 2945 75bd 09e7 3c3d
00000360: 5a0c 3cbd a6bf 2bbe dbae c2bc ca7b 80bd
00000370: d02e 713d 512e a2bc 2f8d 0c3d 2734 233c
00000380: aa12 0dbe 4f56 10bd e3a7 43bc 48bd 9cbd
00000390: 435c 6fbd 1230 753c b8a5 0d3e da91 463c
000003a0: 928a ef3d 870c 26be 96c7 82be b883 eebd
000003b0: b5c3 29be c8d5 123d 0e60 d2bb 2681 883d
000003c0: 1cea 8abd cd6e ea3c d149 efbd 8b85 b53d
000003d0: ed3b bfbc ee8e df3d 35d7 a73d 7f73 1fbd
000003e0: a29c eb3d 5528 16bd e2c7 e23d 9e4d 8abb
000003f0: 1749 13bd 7b72 873d 8f40 01bd d1e6 313c

fc3.bias f4 [30]
7.564612e-07 -1.503239e-05 -2.2432156e-05 1.7955133e-05 -3.220042e-05 -2.1212009e-06 -2.970389e-05 -4.8747082e-05
3.7177873e-05 -5.3419712e-06 2.7400549e-05 -3.2919223e-05 4.8420377e-05 -4.0343974e-05 -2.0542377e-06 3.3791246e-05
-1.6400103e-05 3.9184647e-06 -2.5961663e-05 4.2739583e-05 -4.949107e-05 -1.1308643e-05 -1.1072947e-05 -3.00066e-05
-1.4218827e-05 -1.2543398e-05 -6.6977377e-06 4.9552305e-06 -7.172364e-06 2.1776146e-05
00000000: 9e0f 4b35 a033 7cb7 b02c bcb7 5b9e 9637
00000010: f00e 07b8 f459 0eb6 9e2c f9b7 c875 4cb8
00000020: 70ef 1b38 2f3f b3b6 3bda e537 bf12 0ab8
00000030: fc16 4b38 0337 29b8 89db 09b6 13bb 0d38
00000040: f492 89b7 5b7b 8336 3fc8 d9b7 4743 3338
00000050: a294 4fb8 40ba 3db7 f2c5 39b7 afb6 fbb7
00000060: 668d 6eb7 7c71 52b7 21bd e0b6 1b45 a636
00000070: 23aa f0b6 ebab b637

bn3.weight f4 [30]
0.8943272 0.9409347 0.9311342 0.85341823 0.9674201 0.8949649 0.9838435 0.9785495
1.0346165 0.8272206 0.922969 1.0555586 0.9424173 0.8637917 0.89774424 0.9686372
0.8902815 0.9500436 0.95576805 0.9010768 0.89163995 0.9365972 0.8774565 0.9651306
0.9964177 1.0305202 0.924749 0.79570144 0.86293185 0.9810501
00000000: a1f2 643f 19e1 703f d05e 6e3f 9e79 5a3f
00000010: d8a8 773f 6b1c 653f 2bdd 7b3f 3882 7a3f
00000020: 506e 843f bbc4 533f b247 6c3f 8b1c 873f
00000030: 4342 713f 7421 5d3f 91d2 653f 9cf8 773f
00000040: 7de9 633f 0f36 733f 37ad 743f f8ac 663f
00000050: 8442 643f d6c4 6f3f fda0 603f cd12 773f
00000060: 3b15 7f3f 16e8 833f 5abc 6c3f 17b3 4b3f
00000070: 1ae9 5c3f 1926 7b3f

bn3.bias f4 [30]
0.34497553 0.4821641 0.533596 0.49352267 0.3675379 0.3039398 0.4099304 0.29979706
0.44815677 0.41425362 0.6065848 0.35978225 0.18333104 0.11129698 0.21858998 0.16258413
0.371788 0.3465181 0.16655596 0.28567252 0.074143045 0.21246532 0.11490226 0.28902134
0.16939859 0.2948487 0.30270064 0.1603449 0.41985178 0.061924264
00000000: a2a0 b03e 37de f63e bf99 083f 01af fc3e
00000010: ed2d bc3e ff9d 9b3e 66e2 d13e 007f 993e
00000020: ce74 e53e 0d19 d43e 2449 1b3f 6135 b83e
00000030: 22bb 3b3e acef e33d 0dd6 5f3e 747c 263e
00000040: ff5a be3e d26a b13e a58d 2a3e ab43 923e
00000050: 4fd8 973d 8290 593e e051 eb3d 9bfa 933e
00000060: d376 2d3e 69f6 963e 94fb 9a3e 7431 243e
00000070: d0f6 d63e 4ca4 7d3d

bn3.running_mean f4 [30]
-0.56810576 -0.18156198 -0.33390886 -0.44097704 -0.3833283 -0.10305117 -0.11729589 -0.38618815
-0.41424748 -0.25189343 -0.3597322 -0.31128323 -0.16947068 -0.1971341 -0.43783066 -0.30766833
-0.18746893 -0.14101027 -0.21294965 -0.14980194 0.020181896 -0.2939338 -0.17948453 -0.13319547
-0.25577307 -0.3349665 -0.05276778 -0.26061434 -0.11988219 -0.11996231
00000000: 616f 11bf 62eb 39be 1af6 aabe bec7 e1be
00000010: 9b43 c4be 7e0c d3bd d438 f0bd 74ba c5be
00000020: 3f18 d4be 2df8 80be d22e b8be 8460 9fbe
00000030: b989 2dbe 86dd 49be 572b e0be b486 9dbe
00000040: dbf7 3fbe ff64 10be 790f 5abe ae65 19be
00000050: 8154 a53c 7e7e 96be cbca 37be 6564 08be
00000060: b0f4 82be bb80 abbe 0723 58bd 3e6f 85be
00000070: cb84 f5bd cdae f5bd

bn3.running_var f4 [30]
0.72734874 0.7456394 0.71127576 0.5530086 0.80503255 0.7587317 0.7647731 0.63869995
1.3132113 0.84927213 0.5307983 1.285395 0.5848985 0.75338537 0.85697633 0.5684683
1.0008297 0.58062947 0.9385912 1.1015025 0.8894237 0.93556046 0.94674534 1.0201374
1.1566663 0.8238236 0.64403 0.51855606 0.5706829 0.71070164
00000000: 8733 3a3f 39e2 3e3f 2b16 363f f991 0d3f
00000010: 9d16 4e3f 3e3c 423f 2bc8 433f d781 233f
00000020: 4f17 a83f e669 593f 66e2 073f d387 a43f
00000030: e8bb 153f dddd 403f cd62 5b3f 2387 113f
00000040: 301b 803f 22a4 143f 8347 703f 09fe 8c3f
00000050: 46b1 633f e480 6f3f e75d 723f dd93 823f
00000060: a40d 943f 1ae6 523f 26df 243f 17c0 043f
00000070: 4618 123f 8bf0 353f
